weights/pnet.pth (torch_old, 31507 bytes, 24 tensors)

conv1.weight f4 [10, 3, 3, 3]
00000000: 1991 0c3b 60dc 4dbe a54d b6bb 2b0e eebc
00000010: 61f9 1f3e 42d4 e73c be09 2d3e 9317 0bbe
00000020: e021 89be 0f99 2a3d 90c5 28be 9dfc 2b3d
00000030: 4bbf 683d 2718 fc3d 8d02 28bd 1305 c53d
00000040: e15d 913d 2c3b b1be bcc3 373e b973 153c
00000050: 0c87 e1bd 0656 54bd 6326 fa3d 1a32 03be
00000060: c9d0 7d3e 62bc 053e 16ea 03bd aa7f 87bc
00000070: 48b1 803e daf4 3bbe 97b6 18be 6dcc 4c3e
00000080: 8c5e 3cbd 3a92 5cbe 3c25 86bc 19c8 8c3d
00000090: 89e9 1abe f44c 773e e99e e93b 3c96 49be
000000a0: b84d 383e 513d 923d 1f92 d63d 14ac 253c
000000b0: f850 16bd 236b 1bbe 39d6 0a3e 9d3c 9ebc
000000c0: b247 47be 47d8 583e 8a33 91bd 0c4b 5cbd
000000d0: 892c 183e 9d25 b3bd 9b74 923e 5199 3bbe
000000e0: 7d9a 6abd 64fb e83d c3cb 53be 6a64 cd3c
000000f0: 0c52 e2bd 7e77 393e 14c7 aa3d eb1a b2bd
00000100: 0ad6 40bd a272 11be b4d0 4bbe 04b6 59be
00000110: f627 613e e9e9 c33d 9598 e13d 4d8d 293e
00000120: a5cb 083d 1d14 b53d 7bc6 e03d 0990 cebd
00000130: 646c 5abe 7721 a1bc 3f4c e1bd 48a6 a9bd
00000140: f619 3c3e 5930 46be a817 323d 6f85 0e3e
00000150: c0cb 4fbe b1f0 acbd 4107 923c f9a2 5dbe
00000160: b00e 5ebe 7afa dcbb ce1e 66be 7f5b 803e
00000170: ee53 b43d b0ec ec3d e8ce 33be 95de e3bd
00000180: 9084 6cbd b3c2 7fbd 1845 3f3d cead c23b
00000190: ec70 a63e 0272 833d adeb babd 7af0 9dbd
000001a0: 1fb0 2f3e 0bad 2e3e 1dee dc3d 5ec2 fd3d
000001b0: 9a48 86bd 1649 dbbd cf4d 8d3d c8a2 68be
000001c0: 7bf2 37be 90d8 11be 846d 98be 442c 23be
000001d0: d07b d43d b295 a63c 94cc 163d a918 54bd
000001e0: a380 763e f422 08bb 092d 18bc 7a56 963e
000001f0: 075e 033e a09b 313e 8648 ab3d 0281 dbbd
00000200: 8984 2abd f263 93bd 7b06 5c3e 1bd4 07be
00000210: 6c98 92bc 1367 cd3c f465 89bd 7f47 5ebe
00000220: 289e 33bd e16c 503d 58af bdbd f138 0abd
00000230: 3240 2bbe 4c9d 733d 81da 69be f632 7d3b
00000240: 26c5 8a3e 490f 823e f47e 153e 8405 a33d
00000250: 685d 3f3e 71e5 5f3d 8450 013e 70bc 0e3e
00000260: df3b 5dbc e862 ebbd 16e0 75bd e738 4ebd
00000270: 810f b03d 377a 87bd cdbf f03d 1675 11be
00000280: 46e0 c93c 10bb c1bd dcf8 113e 9ba2 043e
00000290: ad4a 4f3d 5e98 5d3d 0e07 ba3d 48d3 013d
000002a0: 2629 9cbe 81e1 d6bd d56a a93d 9320 4c3d
000002b0: 6d57 b83d bef4 f7bd 36dd 183e c7a0 843d
000002c0: f352 523e 5b1b 60be 7c74 29be ebed 20be
000002d0: 3d95 efbd f309 adbd 5b9a 6cbd 8719 7c3e
000002e0: aeba 993e c6fe 4dbc 3d04 2ebe f0c8 d2bd
000002f0: 931f 19be 564f 93bd c174 10be 0c6d ce3d
00000300: 327b c8b9 fde5 5d3d 20a5 893e 9638 11b9
00000310: 8651 da3c 0f3c 5c3e 793c 26be 1fd3 3cbe
00000320: 7b33 84be aa24 9fbd cd2d 173e 437b 13be
00000330: d06e 7abd fdb6 1a3e fa1a 58bd 7867 2bbe
00000340: a90b 48bd 6f52 18be 772b 07bc 725b 28bd
00000350: c9b0 523e 1711 2f3e aafb 353e f7aa c33d
00000360: 8e32 cabd 6761 72be 0b8a e1bd d2e8 2b3e
00000370: c851 233d d559 a3be 766d 2e3e 1acf 4d3e
00000380: 2be2 023e c5f1 abbc 64b9 88be 8f8e 82be
00000390: 9b46 fa3d f6ca 123e 245b 813d df81 853e
000003a0: b91d b23d d44b b53d d3e6 b0bd a33c babd
000003b0: 4e9e 0ebe a053 59bd ab6a 86bd f99f ae3c
000003c0: 0f51 933d 9ca4 923e a1bc 67bd 59f3 d6bd
000003d0: f06b 0a3e e1ea 233e 826f edbd 7fe5 e83d
000003e0: f3e0 a93e 6264 8ebb 211b ecbc 8d5e 723e
000003f0: c97e 4cbd 6afd 90bb 2f28 103e 46ff 86bd
0.002144879 -0.20103598 -0.005563455 -0.02905949 0.15622474 0.028299455 0.16898248 -0.13583212
-0.26783657 0.041649874 -0.16481614 0.041988958 0.056823056 0.12309294 -0.041018058 0.096201085
0.07097984 -0.34615457 0.1794576 0.009121829 -0.11012086 -0.05183985 0.12214353 -0.12812081
0.24786676 0.13060144 -0.032205664 -0.016540367 0.25135255 -0.18355122 -0.14913402 0.19999857
-0.045988604 -0.21540156 -0.016375177 0.06874103 -0.15128149 0.24150449 0.0071295393 -0.19686216
0.17998397 0.071406014 0.10477089 0.010111827 -0.03669831 -0.15177588 0.13558282 -0.019316012
-0.19460943 0.21176253 -0.070899084 -0.053782508 0.14860739 -0.087474085 0.28604588 -0.18320204
-0.057276238 0.11376074 -0.20683198 0.025072295 -0.110508054 0.18111989 0.083387524 -0.086965404
-0.047079124 -0.14203885 -0.19903833 -0.2126084 0.219879 0.09566099 0.11015431 0.16557808
0.033397336 0.08841727 0.10975357 -0.10086066 -0.2133041 -0.019669278 -0.11000871 -0.08283669
0.18369278 -0.1935438 0.04347959 0.13918088 -0.20292568 -0.08444346 0.017825725 -0.216442
-0.2168529 -0.0067437263 -0.22472689 0.25069806 0.08805071 0.11568582 -0.17559397 -0.111264385
-0.05774361 -0.06244154 0.046696752 0.0059411293 0.32508028 0.0641823 -0.09126983 -0.07711883
0.17157029 0.17058198 0.10787604 0.12390588 -0.065568164 -0.107072994 0.068996064 -0.22718346
-0.17963593 -0.14242768 -0.29771054 -0.15934855 0.10375178 0.020335052 0.036816195 -0.05178133
0.24072509 -0.0020772787 -0.009288081 0.2936285 0.12828837 0.17344522 0.08363442 -0.10717966
-0.0416303 -0.071967974 0.21486847 -0.13264506 -0.017894946 0.025073564 -0.06708899 -0.21706961
-0.043852 0.050885085 -0.0926196 -0.03374571 -0.16723707 0.059476182 -0.22837259 0.0038635111
0.27103537 0.25402287 0.1459921 0.079600364 0.18687975 0.05466217 0.1262837 0.1393907
-0.013503044 -0.11493474 -0.060028158 -0.050347235 0.08596707 -0.066151075 0.11755333 -0.14204821
0.024643075 -0.094595075 0.14255089 0.12952654 0.050608326 0.054100387 0.09083377 0.031695634
-0.30500144 -0.1049223 0.0827233 0.049835753 0.0900105 -0.12107228 0.14928135 0.06475978
0.20539455 -0.21885435 -0.16548342 -0.15715759 -0.11698387 -0.08449163 -0.057764392 0.24619113
0.30025238 -0.01257295 -0.16993804 -0.10292232 -0.14953451 -0.071928665 -0.14107038 0.10079393
-0.0003823876 0.054174412 0.26883793 -0.00013849357 0.026650202 0.21507286 -0.16234006 -0.18439911
-0.25820526 -0.07770665 0.14763565 -0.1440249 -0.061140835 0.15108867 -0.0527601 -0.16738689
-0.048839245 -0.14875196 -0.008250109 -0.041102834 0.2057525 0.17096363 0.17771783 0.09554093
-0.09872924 -0.23669969 -0.11012658 0.16788033 0.039872915 -0.31904474 0.17033944 0.20098534
0.12781589 -0.020989308 -0.26703942 -0.2549939 0.12220498 0.14335236 0.06316212 0.26075646
0.086970754 0.08852354 -0.08637776 -0.09093597 -0.13927576 -0.053058267 -0.06563314 0.021316515
0.07193195 0.28641212 -0.056576375 -0.10495634 0.13517737 0.16007568 -0.11593534 0.11371898
0.33179435 -0.0043454627 -0.02882153 0.23668881 -0.0499256 -0.0044247406 0.14077829 -0.06591658

conv1.bias f4 [10]
00000000: 9e3d 4abd 4d4d 48be 706c 17be a97b 97bc
00000010: 1c9f 883e 119f 923d cce4 9a3d 93d8 2dbe
00000020: c681 603d 8250 a8bd
-0.04937517 -0.19560738 -0.1478746 -0.018491583 0.2668389 0.07159246 0.07563171 -0.16977148
0.05481126 -0.08218481

bn1.weight f4 [10]
00000000: 7ba1 633f b284 633f 3186 623f f304 893f
00000010: 87e7 723f 3874 8d3f fcff 813f f8cf 8f3f
00000020: 036a 853f f92c 7f3f
0.88918275 0.8887435 0.8848601 1.0704635 0.9488453 1.1051092 1.0156245 1.1235342
1.0422977 0.99678

bn1.bias f4 [10]
00000000: cc9b 053e 8919 113c 04e3 11be ceca c1bc
00000010: fec3 6a3e 681b 6d3e 842b 27bd a710 0d3d
00000020: 74b3 2b3d e3fe d4bd
0.13047713 0.008856186 -0.14246756 -0.023656275 0.22926328 0.23154986 -0.040812984 0.03443971
0.041919187 -0.10400178

bn1.running_mean f4 [10]
00000000: 16af 0cbe c9e6 5cbe 47a3 d8bd 5283 6cbe
00000010: f09d e93d 47a1 7bbd eeed 073e 75fc e3bd
00000020: 0179 453d 71a1 093e
-0.13738665 -0.21572413 -0.10578018 -0.2309697 0.11407077 -0.061433103 0.13274357 -0.11132137
0.0482111 0.13440491

bn1.running_var f4 [10]
00000000: 5e46 fa3d 42ad c73d 4f5e 7e3d d86d 1b3e
00000010: c3da a13d eb18 463d b742 b33d 4eca d63d
00000020: 9b55 4c3e 0c1d f33d
0.12220453 0.09749843 0.06210166 0.15178621 0.079030536 0.048363607 0.08752959 0.10487805
0.19954531 0.118707746

prelu1.weight f4 [10]
00000000: 1982 253f aa72 d13d 50ce 623d 8012 45be
00000010: 60b8 413f f598 6dbe 0df1 59be a470 123e
00000020: acc5 e83d 0919 19be
0.6465164 0.102269486 0.055372536 -0.19245338 0.7567196 -0.2320288 -0.2128336 0.14300781
0.11365828 -0.14950956

conv2.weight f4 [16, 10, 3, 3]
00000000: 42d3 74bd 3d8f 6b3d 1aa9 81bd df84 a3bd
00000010: 9d2e dd3c c5af 77bd 3139 f53d cbd7 1abd
00000020: d382 153e 6c5b ec3d 59b5 4abc 9cd0 783d
00000030: 300a f03d bb41 80bd 1dfa 203d 2fcd 3c3e
00000040: 2c0e f63d 71c0 c13d 28f9 12bd 3851 7c3d
00000050: 3f68 77bd 1517 373d a07f 263e 2e85 2ebd
00000060: b7aa d6bd 767c c2bc c388 c13d f5fb 84be
00000070: aec4 9fbd 957e 573b ed3b e03d c4d5 9e3b
00000080: c599 1d3e eb5f 8e3b 3aa3 c13d 4f17 243e
00000090: 1e7d 1cbe ad3c 33be aeff d9bc fc73 c1bc
000000a0: 163e bcbd 71a7 263e a98f 453d 92b5 4c3e
000000b0: 84b6 b13d 457c 86be 4109 febd 352f 08bd
000000c0: f472 ff3c 8f38 c93c d4a0 a2bd 0dc8 f93d
000000d0: 34bb bc3d a649 473c 9953 ac3e d1aa a6bd
000000e0: 836d 4dbe fdef 5e3e 8931 d83d f15c c0bc
000000f0: 0b06 eabc 1f49 abbd 8be8 63bd fa67 1ebc
00000100: ef7d 01be ea78 40bd badf 213e c98c 263d
00000110: 3ef0 d03c e125 a0bd 56db b3bc 73c9 28be
00000120: 6afb 503d d241 3d3d c884 15be 1008 15be
00000130: b599 593d 1317 453d 045e 7e3d a99b 623d
00000140: 1b36 a13d 0278 0abd 010c a83d 4363 b53d
00000150: 29e5 ff3c 4642 d1bb 2956 55bd deb0 26be
00000160: 9acb d9bb b9a0 10be 69b9 68bd 9fba 673d
00000170: bfc7 fc3d 559e c83d 7e6b 49be 4eb7 033d
00000180: 4ffc a6bb 7c51 81be 8525 a13d db0f 34be
00000190: 05d9 c8bd f6c9 1fbe 6a69 22bd 612a 1cbd
000001a0: 9882 a2bc d13f 72bd 4b04 543c 1eb4 c3bd
000001b0: ea80 d53d 27b3 8dbd fb55 7abe ac73 a7bd
000001c0: 9b26 3cbd 5b2c 393e 824b 0a3e 4374 bfbd
000001d0: 1b07 e93c 9446 33be 2533 ddbd 2e01 eb3e
000001e0: ff8c 08be f39f 393d a9ac f6bd cba9 37bd
000001f0: f192 413d e77a 6b3d 2ec8 b03d 89f0 94bd
00000200: e47c 283d 8491 8f3d 8406 e4bd a3ca 9dbd
00000210: 351c 2bbb 0ad3 99bd 2c1a dbbc 49fa 603e
00000220: 2974 0cbe 3c8a 80bd c805 a9bd 24af ba3b
00000230: bd9c 92bc fea2 553d 43e8 5e3d 27b2 0dbb
00000240: 8d7a f0bc c34e 023d 3ba5 47bc 2943 f33d
00000250: 6e8e bebc 776e a6bd 94de 5a3b 8afc 86bd
00000260: 9f83 77bd 194f 2a3e 0ab0 b53d a635 50be
00000270: a9a8 ab3d c46a 033c e3e7 8d3b b28e 2f3e
00000280: 9748 8a3d 4cb6 853c 3d84 06be b0ff 073e
00000290: 6827 253e 90a9 e2bc df2b 2c3e 971e cdbd
000002a0: 9039 67bd 9d79 303d 465a 983d a85c 9bbd
000002b0: 7a24 57be 572a f4bd f0c5 533e 9d66 9e3d
000002c0: 7e55 8c3d 801d 20be 0341 20bd 3022 f0bd
000002d0: cfa2 843d 276e 15be dd4d d63c 2976 d2bd
000002e0: ca32 923c 5a12 2abe 519f f3bd 38da 1bbe
000002f0: e813 193c adc3 f2bd 5dee 9ebc 3172 c4bb
00000300: ff11 77bc 4d5e 56bd d8e1 f13b de3f d33d
00000310: b745 5dbd f61a b0bd aab3 9bbc 99dd be3d
00000320: 2697 453c 1fba 1fbe c50e 0ebc d80e 1f3d
00000330: 86b1 c8bd 17d1 d03d b6b2 d4bb 109c bbbd
00000340: 57db 2dbe 4b85 743c c3b5 7f3d 5a88 1e3d
00000350: 8b5f d43b f273 ec3d fe1b 53bd 4d87 eb3d
00000360: 2572 ab3d 8468 42bd 8135 a9bd 74bd c8bd
00000370: e56f cabd 0ad6 8f3c e062 153e 785c ba3c
00000380: 90ac 4cbd a0f4 20be 9d8f 99bd fea4 063d
00000390: 7369 86bd ac73 2f3d bb5f 23bd 9231 d7bd
000003a0: 8f38 3bbe 4cd9 03be 6ea9 38be f346 30be
000003b0: fd5f 723d 6fd7 3bbd 8c7b 62bd fcde 143d
000003c0: f634 c0bd c7ea ecbd 2f93 79bb ffff 103d
000003d0: 585d f7bd 15c9 293e d219 093e 7e0c d8bc
000003e0: c8c8 333d 8ad2 82be f2ca f9bd 0e06 1e3e
000003f0: 7083 e43d 3316 febd 3cd2 9f3d a3ab 4ebd
-0.059771784 0.05750965 -0.06331082 -0.079843275 0.026999766 -0.06047036 0.11973799 -0.037803452
0.14600687 0.11540875 -0.012372338 0.06074582 0.11720693 -0.06262537 0.039301027 0.18437646
0.12014422 0.094605334 -0.035882145 0.061600894 -0.06040215 0.044699747 0.16259623 -0.04260748
-0.1048178 -0.023740988 0.09449913 -0.25973478 -0.078011855 0.0032881845 0.1094893 0.00484726
0.1539069 0.0043449304 0.09454961 0.16024517 -0.15282103 -0.17503615 -0.026611175 -0.023614876
-0.091915295 0.16274811 0.048232708 0.19991139 0.0867739 -0.26266685 -0.12404109 -0.033248145
0.031182744 0.024563102 -0.07940832 0.1219636 0.09215394 0.012163555 0.3365753 -0.081380494
-0.20061307 0.21771236 0.10556323 -0.023481818 -0.028567335 -0.08363556 -0.055641692 -0.009668345
-0.12645696 -0.046990313 0.15808001 0.040661607 0.025505181 -0.07819725 -0.021955173 -0.16483097
0.051021017 0.04620535 -0.14601433 -0.14553857 0.053125102 0.04811771 0.06210138 0.05532423
0.07871648 -0.033805855 0.082054146 0.08856823 0.031237202 -0.0063860742 -0.05208412 -0.16278407
-0.0066465857 -0.14123811 -0.056817446 0.05657446 0.12342786 0.097958244 -0.19669911 0.032157235
-0.0050959955 -0.2525748 0.078684844 -0.17584173 -0.09807018 -0.15604386 -0.039651312 -0.038126353
-0.019837663 -0.05914289 0.012940477 -0.09555839 0.10424979 -0.06918936 -0.24446861 -0.081763595
-0.045935255 0.18083327 0.13505366 -0.09348347 0.028445771 -0.17507392 -0.10800771 0.45899338
-0.13335036 0.045318555 -0.12044651 -0.04483966 0.047259275 0.057490256 0.08631931 -0.07272441
0.04113473 0.07010177 -0.11134055 -0.077046655 -0.0026109342 -0.07510956 -0.026745878 0.21970476
-0.13716187 -0.06276366 -0.08253056 0.005697148 -0.017897004 0.052157395 0.05442072 -0.002162108
-0.029355312 0.031813394 -0.01218539 0.11878044 -0.023261275 -0.08126538 0.0033396827 -0.06591137
-0.060428258 0.16631736 0.088714674 -0.20332965 0.08381779 0.00802106 0.0043306216 0.17144278
0.06752127 0.016322277 -0.13136382 0.13281131 0.16128314 -0.027668744 0.1681361 -0.100156
-0.05645138 0.04308473 0.07439093 -0.07586032 -0.21010008 -0.11922138 0.20680976 0.07734416
0.06852244 -0.15636253 -0.0391245 -0.11725271 0.06476366 -0.14592801 0.026160175 -0.102764435
0.017846484 -0.16608563 -0.118956216 -0.15219963 0.009343125 -0.118537284 -0.01940077 -0.005995058
-0.015079974 -0.052336026 0.007381659 0.10314916 -0.054021563 -0.085988924 -0.019006569 0.0931961
0.012059962 -0.15598343 -0.0086705135 0.038832515 -0.09799485 0.10196131 -0.0064910306 -0.09160626
-0.16978203 0.014924358 0.0624292 0.038704254 0.006481116 0.11545552 -0.051540367 0.11500416
0.08371381 -0.047462955 -0.08262158 -0.0980176 -0.098846234 0.017558116 0.14588499 0.02274917
-0.049969256 -0.15718317 -0.07498095 0.032872193 -0.065630816 0.042834923 -0.039886218 -0.10507502
-0.18283294 -0.12875861 -0.18033382 -0.17214565 0.059173573 -0.04585975 -0.055293605 0.036345467
-0.093851015 -0.11568218 -0.0038082113 0.035400387 -0.12078351 0.16580613 0.13388756 -0.026373144
0.04389265 -0.25551254 -0.12196912 0.15431997 0.11157882 -0.12406578 0.07803771 -0.050456654

conv2.bias f4 [16]
00000000: c071 573d 2623 f73c 9b44 dfbc be29 08be
00000010: 7ed8 8a3d bfb9 89bd 9711 d13d b2ce dfbd
00000020: fd5f 0b3d 4461 eebc 002c 44bd b510 a63d
00000030: c97e bbbd 63ad adbd 83bd a23d 4028 d0bd
0.052598715 0.030168127 -0.027254393 -0.13297173 0.06779574 -0.067248814 0.10208433 -0.10928096
0.03402709 -0.029099114 -0.047893524 0.08108655 -0.09155042 -0.084803365 0.07946303 -0.10163927

bn2.weight f4 [16]
00000000: 58b6 703f 2b31 813f 81ec 8d3f d2e1 823f
00000010: 5818 843f 4e5c 8f3f b1f5 7b3f 2a65 813f
00000020: 9401 793f 03ba 773f 2194 7e3f 9e76 5f3f
00000030: 8cea 6e3f 016c 883f ef91 813f 2460 793f
0.94028234 1.009313 1.10878 1.0225165 1.0319929 1.1200044 0.9842177 1.0108998
0.97268033 0.96768206 0.99444777 0.8729037 0.9332664 1.065796 1.012266 0.97412324

bn2.bias f4 [16]
00000000: d346 aebc 6a2a 13be 6795 b23d 81a9 cb3d
00000010: 7d28 efbd 6a1a b3be 936b 4ebc 2ad1 e6bd
00000020: 7808 053e 44a6 093e 51e7 de3d dd85 803d
00000030: 1ea0 fa3d 8591 6cbe c686 353c fe4f aebd
-0.021274006 -0.14371648 0.087199025 0.0994444 -0.116776444 -0.3498109 -0.01259889 -0.11270364
0.12991512 0.13442332 0.10883964 0.062755324 0.12237571 -0.23102386 0.011079496 -0.08511351

bn2.running_mean f4 [16]
00000000: d107 d03e 667a a0be 667a e2bf 480c 93bf
00000010: 27c3 9dbf da52 73bf 39ce a3be 0b2e f7be
00000020: d670 04bf b856 73bf 0b4d c6be 709d db3e
00000030: ecff 85bf 787d 67bf 4db9 4b3e 16e3 bbbe
0.40630963 -0.31343383 -1.7693603 -1.1488123 -1.2325181 -0.95048296 -0.31993273 -0.48277315
-0.51734674 -0.950542 -0.38730654 0.42893553 -1.0468726 -0.90425825 0.19894905 -0.3669669

bn2.running_var f4 [16]
00000000: c509 193f 2400 213f 50a7 7b3f 9e0d 223f
00000010: f4d1 8d3f 47d0 a53f a474 363f 476b 6e3f
00000020: 5850 2c3f 363e 6d3f 6fb2 a93f f2ea 173f
00000030: 9a98 963f 89ad 8b3f c6d4 323f aa60 0a3f
0.5978053 0.6289084 0.98302174 0.6330203 1.1079698 1.2954186 0.7127173 0.9313244
0.67310095 0.9267305 1.3257579 0.59342873 1.176532 1.0912334 0.69855917 0.5405375

prelu2.weight f4 [16]
00000000: 012c 19be 14ea 5a3d c6b5 bf3d 5c9b cc3b
00000010: 5c66 0f3d 8a83 1dbb 3bbe 48be 4414 50be
00000020: f32d 3fbe b807 403c 307c c73d 8e79 16be
00000030: 4cb8 08bd 878b 08bd fb9a eebc 1d3d bdbd
-0.14958192 0.05344589 0.093608424 0.006244106 0.035009727 -0.0024034702 -0.19603817 -0.2032023
-0.18669872 0.01172059 0.09740484 -0.14694807 -0.033378884 -0.03333619 -0.029126635 -0.09240172

conv3.weight f4 [32, 16, 3, 3]
00000000: fdc4 af3d a79c 69be 554e dfbd 936c 443e
00000010: f200 21bc ef09 1dbd 81a2 d83d 8be8 1c3c
00000020: 6a25 143d c6e7 2ebe 070f 88bd 2417 f4ba
00000030: cb42 773c eef0 9c3d b906 abbb d427 833d
00000040: fcca 09bc 1915 0b3d 0417 df3d 0c77 153e
00000050: 3b13 0bbd 4abe f7bb e740 83bd 1551 8f3d
00000060: 4dd6 3abd 1f1a 6e3d fd5f 733b 441b 523d
00000070: 4395 a93b 9ed8 63be 4feb 89bc 9493 f7bb
00000080: ea53 2bbe 26e6 b03c b5d7 d8b8 6efd e43d
00000090: e863 b03d 8ac3 3abc c854 c3bd 79b2 3a3d
000000a0: 930a f8bc 3b92 7dbd a4ca 723d 31d0 f4bd
000000b0: c6bd c13d a8dc 663e 02be e43c f996 573d
000000c0: c3aa 7a3e b975 ee3c 77ce c8bc 2c87 623e
000000d0: 8127 103c 7cbc fdbd 6717 673c eba1 acba
000000e0: 92cf f23d 5093 413c 4c96 26bb c852 813c
000000f0: 36ea b2bd 4901 6a3d 58d5 b33d 0ebd 33be
00000100: 5070 8bbc 6cd6 50bd 409d 63be 9311 1f3d
00000110: b159 873c 0101 9abd afc1 bfbc 6759 93bc
00000120: 36ba b1bd c769 97bc 75e2 773d 1923 7c3d
00000130: 8ebc 96bd 14fb 053e f7fc de3d b903 013e
00000140: 8373 8b3c bb8d fa3c 36d7 94bd b07c f1bd
00000150: 0063 16bd a0ef 4abe 7406 42be 7752 283d
00000160: a738 d33d 16a0 debc 8116 4ebe 1ba9 b0bd
00000170: bb82 2c3c f711 8abd 5216 87bd c5d5 d73d
00000180: f2cd 5abe 3c31 ed3c de80 0f3d 9c9d 643c
00000190: 03f0 4c3d 9d43 083e e7df 2dbb c40e d0bd
000001a0: d3ed 6c3d 92bb 113d 70dc 163d 8a37 e1bc
000001b0: 8ca6 fe3d 5386 85bc b8e8 f2ba 78c9 0c3e
000001c0: 1632 2bbc b572 a2bd d1a6 5e3e f12f 193e
000001d0: 6544 d0bd 0425 cb3d a9fe a3bd f5fc 74bd
000001e0: 0310 193e ec25 1c3d 237e 253d b8cb 153e
000001f0: c96d 253d 624f 853d 2736 1cbe a0c0 97bd
00000200: 10b1 7dbd d3b2 b0bd 16d7 853d 01d4 973d
00000210: ccf3 e6bd b226 76bd 2cc5 733d 506f 6fbc
00000220: 8641 183e 8ac3 f73d 65f2 6fbd 4f4a 453d
00000230: fdcf 873d 0f6d fa3d 5ec9 303e 2a77 4f3e
00000240: 55ef 043d 9970 6b3c ed41 093d a196 223e
00000250: f102 7e3d 6d42 e03d 95b4 9c3d 521c 913d
00000260: f9e0 01bd bad7 a1be a6fb bfbe f9c0 5cbe
00000270: 2b42 5abe f4bf 353d 27c7 a73b 5b1b 20bc
00000280: 999b fb3d 6362 723d a356 fb3d fb6b ed3d
00000290: 71de 84bb d4e8 00bc f30c d8bd b934 fd3a
000002a0: ec48 383d d99d ca3d b7de 163d 177c 87be
000002b0: 8495 b9bc 13ef 32be 3baa 93bc ceae 9ebc
000002c0: 5b41 56bd 979f cf3d 9222 0c3c 2a40 16bd
000002d0: da5b 863c 549c 563d 01f3 843d 3f1b 1a3d
000002e0: 36f4 653d 66c8 c63b 6bce b23d c485 0c3d
000002f0: 6dbd 123e 5e89 703d fb08 3e3d 9884 773d
00000300: 99a3 e43c 2638 7f3d d1ac 9a3d 588e ebbd
00000310: a7a2 413e 5c25 f3bd 80e1 4b3e 0f1e 033e
00000320: 73b1 7c3e bea9 deb9 fed0 4c3d ae48 023e
00000330: ce9f 13bd 2e40 b8bb 20ab 873d 30f2 3e3d
00000340: c88d 543d f722 56bd 8807 debd 82a7 46bd
00000350: 72d5 18be 3ca1 07be 8519 bebd aab0 cfbd
00000360: 8821 2ebe aa4f 00be 1131 e13c 2cec 833d
00000370: cc9f cdbd 58c7 adbd eecb 143c d941 fe3c
00000380: 2741 e03b 1489 0a3e 4070 e33d 9d2e fb3d
00000390: 80f0 493e 79e5 953d 118d 8e3d 2041 0e39
000003a0: 1e59 b03d 39d2 ce3d db17 093e 87da 873c
000003b0: 62f5 193e 23c1 6d3d 71d8 6c3c 3b05 d73c
000003c0: 1bfc d8bd a9f3 bebd ee04 0cbe 66a2 05be
000003d0: ce31 6f3c c18a 423d 140f 94bd 622a 933c
000003e0: 9a51 a33d bd20 773c 1bd6 1e3e b214 583c
000003f0: cb11 a93d 8766 e5bd a715 20be afd7 443d
0.085824944 -0.22813664 -0.109036125 0.19182043 -0.009826886 -0.03833955 0.1057787 0.009576927
0.036168493 -0.17080602 -0.06643491 -0.0018622619 0.015091608 0.07663141 -0.0052193073 0.06404081
-0.008410212 0.033955667 0.10893062 0.14596194 -0.033953886 -0.007560526 -0.064088635 0.06997887
-0.04561453 0.05813038 0.003713607 0.051295534 0.005175264 -0.22250602 -0.016835837 -0.0075554345
-0.1673123 0.021594118 -0.00010339861 0.111811504 0.086128056 -0.011399159 -0.09537655 0.04558036
-0.03027848 -0.061907034 0.059275284 -0.11953772 0.094600245 0.22545111 0.027922634 0.052634213
0.24479203 0.029108869 -0.024512513 0.22121876 0.008798481 -0.12389466 0.014104701 -0.0013170814
0.11855997 0.011814907 -0.0025419174 0.015786543 -0.087360784 0.057130132 0.087809265 -0.17552587
-0.017021328 -0.05098574 -0.22227955 0.03883512 0.01652226 -0.07519723 -0.023407785 -0.017986966
-0.08678095 -0.018483056 0.0605187 0.06155691 -0.07360183 0.1308406 0.10888093 0.12599076
0.017022854 0.03058516 -0.07267611 -0.117913604 -0.036715508 -0.19817972 -0.18947774 0.04109427
0.1031354 -0.027175944 -0.20125772 -0.08626004 0.010529215 -0.06741708 -0.06596054 0.1053882
-0.21367624 0.02895414 0.035035007 0.013953593 0.05003358 0.13307042 -0.0026531161 -0.10159066
0.057843994 0.03557927 0.03683132 -0.027492303 0.1243411 -0.016299402 -0.001853249 0.13748729
-0.010448953 -0.07932035 0.21743323 0.14959694 -0.10169295 0.099191695 -0.08007557 -0.05981155
0.14947514 0.038122103 0.040403496 0.14628494 0.040387902 0.06509282 -0.15255032 -0.07409787
-0.061936438 -0.08627858 0.06535165 0.074134834 -0.11276969 -0.060095496 0.05951421 -0.014613941
0.14868745 0.12097843 -0.058580775 0.04816657 0.066314675 0.122278325 0.17264315 0.20260301
0.032454807 0.014370107 0.033510137 0.15877773 0.062014524 0.1095017 0.07651631 0.0708548
-0.03170869 -0.316099 -0.3749668 -0.21557988 -0.21314304 0.044372514 0.0051201764 -0.009772147
0.12285537 0.05917586 0.12272384 0.11592861 -0.0040548374 -0.007868011 -0.10549345 0.0019318081
0.04499142 0.09893388 0.03683349 -0.2646186 -0.022654302 -0.17474012 -0.018025508 -0.019370463
-0.05230842 0.10137861 0.008553164 -0.036682285 0.01640122 0.05239518 0.06491662 0.03762364
0.0561411 0.00606637 0.08730777 0.034307256 0.14330073 0.058724754 0.046395283 0.060429186
0.02791004 0.062309407 0.07552493 -0.11501759 0.18909703 -0.1187236 0.1991024 0.12804435
0.24677067 -0.00042469607 0.050003998 0.12723038 -0.036041074 -0.005622885 0.066244364 0.046617687
0.051893026 -0.05227944 -0.1084128 -0.04849959 -0.14925173 -0.132451 -0.09282211 -0.10141118
-0.17004979 -0.1253039 0.027489217 0.064415306 -0.100402445 -0.084852874 0.009081824 0.031037258
0.0068437043 0.13528854 0.11105394 0.1226475 0.1972065 0.07319159 0.069605 0.00013566436
0.08610748 0.100986905 0.13388006 0.016583694 0.15035012 0.058045518 0.0144559005 0.026247611
-0.1059496 -0.09323818 -0.13673756 -0.13050231 0.014599277 0.047495607 -0.072294384 0.017964546
0.07974549 0.015083489 0.15511362 0.013188528 0.08255347 -0.11201196 -0.1563326 0.048057254

conv3.bias f4 [32]
00000000: 25f0 72bd 26cd f13c 2194 0d3d 9b4e 65bd
00000010: 7ffc 25bd 6f9e 3a3d e8fb b13c 7dcb b23c
00000020: a63e 153d 9b21 8d3d fc57 0d3d dbbc 4abd
00000030: 27ce 1dbd 29d9 93bd 57f1 0f3d 7315 7f3c
00000040: 38ef d9bc bf3d a1bd bdd0 d5bc 5618 a43d
00000050: 7951 9b3d 9b5c febb 97a9 86bd 2b1d 87bd
00000060: b5ed 063d 4ac3 5b3d 7350 02bd 83fc 493d
00000070: d296 3c3d 5677 7fbd a15a 80bd 9219 48bd
-0.05931105 0.029516768 0.034565095 -0.055983167 -0.040524002 0.04556125 0.021726564 0.021825546
0.0364367 0.06891175 0.034507737 -0.049496513 -0.03852668 -0.072191544 0.03514227 0.015569079
-0.026603326 -0.07873105 -0.02610051 0.08012454 0.07583899 -0.0077625043 -0.065753154 -0.0659736
0.03294154 0.05365304 -0.031815004 0.04931308 0.04604227 -0.062369667 -0.06267286 -0.04885251

bn3.weight f4 [32]
00000000: b688 f03f 4926 f33f 95de ec3f 39cf 0040
00000010: 8266 0540 00f9 0c40 89b8 fb3f 697f d83f
00000020: 09ad 0140 e5ed 0140 4758 6a3f fde3 f93f
00000030: 7ea1 ed3f 4080 0240 2689 c73f 9bc1 fa3f
00000040: 09e1 0040 ec99 e63f 2caf 1840 9049 0040
00000050: 436a 0f40 5473 ff3f 0cde f73f ba0c 0a40
00000060: 7ca4 ef3f df4e 0840 55bc f83f 4e8b 0340
00000070: 9446 0040 1ef2 fc3f 3fd0 e93f 534d 1640
1.8791721 1.8996059 1.8505427 2.0126479 2.0843816 2.2026978 1.9665691 1.6913882
2.0261862 2.030145 0.9154095 1.9522702 1.8564909 2.0390778 1.5588729 1.9590334
2.013735 1.8015723 2.3856916 2.00449 2.2408607 1.995707 1.9364638 2.1570268
1.8722072 2.129814 1.9432474 2.0553775 2.0043077 1.9761388 1.8266677 2.3484695

bn3.bias f4 [32]
00000000: 9986 c23e 16be 9f3e 60c9 403d adb1 6b3d
00000010: 96b2 573e f44a ba3e a068 91bd c8ca 203d
00000020: 3606 913e 5e10 983e c597 6c3e 307a d93c
00000030: 783a ea3d f75b c1bd 268e 1a3e d028 8c3d
00000040: 4862 203d 50f1 a63e d110 e03e c25e ae3e
00000050: a718 293e bdcd 22bb c0bc 243e d5ac 8a3d
00000060: 2dc8 c03d e2c6 8d3e e981 743e 1521 d53e
00000070: 44a4 b3bc c4b9 603e 1a32 9ebc d473 bf3e
0.37993315 0.31199712 0.047067046 0.05754249 0.21064219 0.3638531 -0.07100034 0.039255887
0.2832505 0.29699987 0.2310477 0.026547521 0.11436933 -0.09441369 0.15093288 0.06843722
0.03915623 0.32605982 0.4376283 0.3405667 0.1651331 -0.0024841868 0.16087627 0.06771246
0.094131805 0.27690798 0.23877682 0.41626802 -0.021928914 0.21945864 -0.019311 0.37393057

bn3.running_mean f4 [32]
00000000: 0d94 a63d 23c2 2c3d 5b73 0fbf 0bd2 cfbe
00000010: f9fa 1e3e 7db5 083f 01eb d3bd b093 43bf
00000020: 4edb dc3e 637f b83f 0be2 bcbf 9086 b4bd
00000030: 13e4 f9be a936 33be 2682 b4be a3f9 363d
00000040: c13d 3ebf 242a e8be c20f ea3e c6f6 2b3e
00000050: f460 db3e e892 08bf 6db0 383f 84ac bcbe
00000060: 3324 0e3f 4076 03bf a713 b0bf 5de8 0bbf
00000070: 8d98 5bbe d545 fa3e f97a f0be ee5d 43bf
0.08133707 0.04217733 -0.56035393 -0.40589938 0.15525426 0.5340193 -0.10347558 -0.7639723
0.43136066 1.4413875 -1.4756483 -0.08814728 -0.4880682 -0.1750132 -0.35255545 0.044671666
-0.7431298 -0.4534465 0.45715147 0.16793355 0.42847407 -0.5334916 0.72144204 -0.3685037
0.55523986 -0.5135231 -1.3755997 -0.54651433 -0.21444912 0.48881403 -0.4696882 -0.763152

bn3.running_var f4 [32]
00000000: 1eb6 b63f b3eb 4f3f c6bc f63e c73b de3e
00000010: 9c8b 113f 58fa ba3e 1b62 3f3f 33b1 e83e
00000020: 4b78 9c3e 795b cf3e af81 7d3f b6b2 4c3f
00000030: 51e6 0a3f 501e 2a3f d37b 113f 72f4 9f3e
00000040: 86d3 093f a34e 093f 5039 243f 6f86 e53e
00000050: 1d87 c13f faf1 f73e a47e 2e3f ef1a 033f
00000060: bbfc 3e3f f4eb 1c3f bf61 043f b58b c03f
00000070: c81b d43e a44f 883e e432 f23e 325d 433f
1.4274328 0.81219023 0.48190898 0.43404981 0.5685365 0.36519122 0.7475907 0.45447692
0.30560526 0.40499476 0.99026006 0.7996019 0.54257685 0.66452503 0.56829566 0.31241184
0.53838384 0.53635615 0.6414995 0.44829127 1.5119358 0.484268 0.6816199 0.5121297
0.74604386 0.61297536 0.5171165 1.5042635 0.41427445 0.2662326 0.4730445 0.7631408

prelu3.weight f4 [32]
00000000: a261 9a3e 8e67 13bc 3a72 a1be 301f 26be
00000010: 4898 38be 699c f8be 5a91 17be 607e b0be
00000020: 04b9 b3be 7690 f8be a65b a43e 539d cebe
00000030: 7019 6bbe 9e53 6cbe 8174 93be 1b90 1bbf
00000040: b3ea bcbe 05d8 b1bd 8fdc 42be 0bfb 6bbe
00000050: 50eb 823d 8925 d1be 5a7c a53e a3a4 0fbf
00000060: 1f89 253d 95e2 9abe b934 2dbf 767d 3a3e
00000070: d64b 97be f998 f2be 9a39 0dbf 8df4 a7be
0.30152613 -0.008996857 -0.3153246 -0.16222835 -0.1802684 -0.4855683 -0.14801541 -0.34471416
-0.35102093 -0.48547715 0.32101172 -0.40354404 -0.22958922 -0.23078772 -0.28799823 -0.6076676
-0.3689781 -0.086837806 -0.19029449 -0.23044984 0.063925385 -0.4084895 0.32321435 -0.5611059
0.040413972 -0.30250993 -0.67658573 0.18211922 -0.29550046 -0.47382334 -0.5516602 -0.32803765

conv4_1.weight f4 [1, 32, 1, 1]
00000000: cff6 27bf 1052 23bf ab5f 683f 0643 59bf
00000010: a7f7 59bf 5af2 56bf f3f0 8f3f a715 7e3f
00000020: f6c4 7abf c190 81bf 7d53 583e 349d a23f
00000030: 4a0b 813f 7c72 8f3f d4a3 4e3f b928 61bf
00000040: dd25 933f da34 4fbf 6c08 6dbf a634 65bf
00000050: 2a6b 61bf 6f60 983f b738 5ebf cdbb 933f
00000060: 1823 2fbf 27da 63bf 3099 52bf b89e 3ebf
00000070: b41c 8c3f 7442 74bf e339 4c3f 26fb 51bf
-0.65610975 -0.6379709 0.9077098 -0.84867895 -0.8514351 -0.8396355 1.1245407 0.9925179
-0.9795679 -1.01223 0.21125598 1.2704225 1.008157 1.1206813 0.8071873 -0.8795276
1.149593 -0.8094002 -0.92590976 -0.8953346 -0.88054144 1.1904429 -0.8680529 1.1541687
-0.68412924 -0.8900475 -0.82264996 -0.74460936 1.094626 -0.954139 0.7977583 -0.8202385

conv4_2.weight f4 [4, 32, 1, 1]
00000000: 617b d33d e55e 4abc b9aa c1bb 3324 103c
00000010: c92d dbbb 00af 8a39 4926 4fbc 5c0d 5d3b
00000020: dfc0 283a 78fb ddba dc20 453d 46ef 343b
00000030: f71a 343c 925d 0dbb 53fa a13b f72f b5b9
00000040: 71d1 4d3b f2f4 2cbc 36a1 be3b cddd 7c3b
00000050: f6fb a6bc ed43 5e3b 7ad9 5fbc c128 0b3a
00000060: 0ea0 5fbd a14e 703b 5d0c 283b 81a7 1fbd
00000070: 8705 083b d992 0fbb 9cd2 f7bb 2ceb 053b
00000080: 3cfb 973c e5ee acbd 38df 67bc b93e be3b
00000090: c12e 27bc dd12 69ba 66e0 16bc bddb 1b3b
000000a0: 35fc 37bb 4141 d63a 5de8 623d 5983 1b3c
000000b0: 86a3 5dbc c94e 9cbb 11d3 d93c b43c b13a
000000c0: f71a 883c acca d33c a744 be3b 06ee ea3b
000000d0: 72af 483d e379 553b a691 f63c 43da 883b
000000e0: bd19 bdbc fce6 a0bc e7e3 0ebb cb76 90bc
000000f0: 990e 333b c5d7 d1bb 5ae4 c8b9 2d0d a7b8
00000100: a0d0 4f3d ca5a ae3c 4539 b23a c780 f73a
00000110: a44b 093d f39a 2b3b f71f 163b d132 873b
00000120: b479 3e3b 2fc9 57bb c3cb 52bd ca88 6bbc
00000130: e01d 883c 6dc1 97b9 dae8 27bc c7fe 47b9
00000140: ec6f bcbb d74c b8bc 1315 80bb d897 8b3b
00000150: 3f86 0c3d 053d 093b 97dd 20bd 3652 86ba
00000160: da63 b73b e61d 563c d015 68ba 7c18 81bd
00000170: 04fd 4abb 1dfe 813b 7cc3 05bc e233 bd3b
00000180: 23f7 3bbd 6d5a 2cbd 2880 92bb c196 1ebb
00000190: 9593 1d3d f16a b53a 2634 173c 92c5 393b
000001a0: 3df7 7db9 bdd2 8db9 f9f3 89bd ee33 36bc
000001b0: 0519 cdbb b768 0ebb eefb ea3b 986b eb39
000001c0: 2bcf b03b 6ea8 213c f85c e7bb 86b3 013c
000001d0: 9879 f23d 0b95 db3a 9472 29bb 0cb5 0e3b
000001e0: 402d 4d3d a0f3 0cbc ed32 d9bb 8113 44bd
000001f0: 1e81 6bbb a798 8a3a e94b deba c597 743b
0.10326267 -0.012351726 -0.0059102443 0.008797693 -0.0066888076 0.00026451796 -0.012643405 0.0033729887
0.00064374314 -0.0016935905 0.04812704 0.0027608438 0.010992757 -0.0021570665 0.004943171 -0.00034558747
0.0031405354 -0.010556446 0.0058175577 0.0038584352 -0.020383816 0.0033914999 -0.01366269 0.0005308502
-0.054596 0.003666796 0.0025642135 -0.038978104 0.0020755248 -0.0021907596 -0.0075629484 0.0020434363
0.018552415 -0.08444003 -0.014152341 0.005805817 -0.010204018 -0.00088910555 -0.009208774 0.0023782097
-0.002807391 0.0016346351 0.05539738 0.009491765 -0.013527757 -0.004770134 0.026589902 0.0013522119
0.01661442 0.025853477 0.005806524 0.007169488 0.048995443 0.003257387 0.030098747 0.0041764094
-0.023083562 -0.019641392 -0.002180332 -0.01763477 0.0027321933 -0.0064038956 -0.00038317108 -7.965635e-05
0.05073607 0.021283526 0.001359739 0.0018882983 0.033519402 0.0026184886 0.0022907236 0.004125931
0.002906424 -0.0032926311 -0.051463854 -0.014375875 0.016615808 -0.00028945078 -0.010248387 -0.00019073031
-0.005750647 -0.022497578 -0.0039087622 0.0042600445 0.034307715 0.0020940911 -0.039273825 -0.001024789
0.00559662 0.013068652 -0.0008853348 -0.06303498 -0.0030973563 0.0039670602 -0.008164283 0.005774007
-0.045889985 -0.042078424 -0.004470844 -0.0024198743 0.038470823 0.0013841075 0.009228742 0.002834652
-0.00024220064 -0.00027050628 -0.06735987 -0.011120779 -0.006259086 -0.0021729895 0.0071711456 0.00044902856
0.00539579 0.009866817 -0.0070606433 0.007916337 0.118395984 0.0016752792 -0.0025855647 0.0021775393
0.050091982 -0.008603007 -0.0066283853 -0.047870163 -0.0035935114 0.0010574058 -0.0016959879 0.0037321907

conv4_2.bias f4 [4]
00000000: 3c3b 263d 22b4 85bd 5ea4 2bbd fb9a 953d
0.040583834 -0.06528498 -0.0419048 0.07304951
