weights/rnet.pth (torch_old, 407149 bytes, 27 tensors)

conv1.weight f4 [28, 3, 3, 3]
00000000: a71e b63d 2993 a83e f345 303e da2e 933e
00000010: 19e3 2fbb 9552 6a3e 2ae5 a9bd f8e8 1dbd
00000020: 8d95 f6bd 0d19 0dbc 3485 ed3d 73cd 2fbe
00000030: 48ae de3d ba22 3bbc d648 f0bd f405 aabd
00000040: f773 2bbd da7e 7dbe 2429 883d 6710 f1bd
00000050: 1e99 4a3d a253 02bd 3edc 573e 843e 76bd
00000060: 8a08 bb3d 3ec2 ba3d 975e f13b 75b1 0bbe
00000070: 2f33 4f3d 391f f53d 1375 0abe 4d2b 4bbe
00000080: 1d0f 2b3e 5d32 16bd 4df0 2ebe 0fad f03d
00000090: 0de0 0ebe fb4e fa3a 1e83 803e 2c82 073e
000000a0: a28e 80be 6c31 eb3d abe7 893e 3a60 19be
000000b0: 0e6a 1f3d 89de 47bd 4a01 58bd a498 5dbd
000000c0: 7c2a 483e 6809 e4bd 13b8 c8bd 4ca2 a03d
000000d0: d3f5 f33d d560 13be 51cf 09be d7ec 0a3e
000000e0: 7c25 4dbe 9ac6 063e 219a 21bc 5da2 b73b
000000f0: 16a5 f3bc 080d f2bd 4b02 c0bd e030 1a3e
00000100: f623 463e e7aa 393e a8ae 8b3e 78ee 2a3e
00000110: 1a58 93bd 9000 203e c618 073e d45a 953d
00000120: 7442 663c 283c 393e c184 27be 101e 46be
00000130: 348a c7bd d936 f0bd 34f5 4ebd af90 09be
00000140: e57a 20be 6508 06be 2710 cd3d 3b5c 663e
00000150: 603b 45bd f3b5 7f3d 107a 393e 17bb 5f3c
00000160: 2ee2 88be ae22 2dbe db40 6fbc ad27 233e
00000170: be31 36bc d65c b53d 8192 d73d ad7b 9c3d
00000180: 5b7d 0ebe 42a2 43be adcb 17be 5e77 113e
00000190: a8d5 143c cf69 3f3e b3bf 55be 89a9 1abe
000001a0: 5fd8 a43c 4f6f cebd db0c 34be f633 8ebd
000001b0: 9558 8e3d 5855 0d3e 9257 983b 96f5 7e3d
000001c0: 715b d83d cb62 cf3d 331f 0dbe c7c6 32be
000001d0: 3a24 7abe 981e 6e3e 40eb da3d 63a6 103e
000001e0: cb50 193e 273c 043e 8439 febc 18e0 60be
000001f0: 06ce 43be 72f3 0d3e 2b19 3a3e 47a1 453e
00000200: 1537 a33c 6a47 0ebe 9a9e 35be e569 0fbe
00000210: 9f00 23be 39f3 0cbe ad17 edbc 18a7 50be
00000220: 33e2 ad3c 7591 9fbd 0f9e a7bd 1bb1 33be
00000230: 0a89 9a3d f8b5 61be 6c5e fbbc 5d32 94bd
00000240: b6f3 863e 3f6f b63d 73df fd3d b4f2 603e
00000250: 3290 53bd eda8 473e 61c5 433e ebe1 aabd
00000260: 2cd7 453e b399 b33d cb9d 3dbe 7dfa 69bc
00000270: 2248 843d 191b afbd bbe2 7abe bf55 cabc
00000280: a055 803d d330 6a3c 693f 643d b352 27be
00000290: 18e9 01be 3080 4d3e 8e7e 59bb 2b38 babd
000002a0: 9977 2a3e 1b1b 513e 4ae5 64bc 0672 853e
000002b0: 27fa 3cbe 3a3f 80be 872b c33d af9e 683c
000002c0: 4849 953c 78dd 203e 6faa 6abe f8c8 23be
000002d0: c210 773e 64a4 583d caad d53d 0de4 cd3d
000002e0: 5e78 35be 6bf0 edbd bac1 0b3e 3ecc adbd
000002f0: a6e3 d4b8 7fdd 4fbc c114 b9bd c6fa a4be
00000300: 7617 823d 0b4c bf3c 77ab 80be f77e 403e
00000310: 47cb 283e 997b 903d 1280 7fbb fccf 6abc
00000320: f2da 36be 910b 023e 95a5 2bbc 3d4f ac3c
00000330: 81e8 703e 7397 453e 088f 18bb 9704 cdbd
00000340: 71c7 973d 893c 52be a0d5 9cbd 8dd9 bf3d
00000350: e673 39be 1c7b e5bd 798f 293e 4a3f 403e
00000360: c686 bdbd 3314 f4bd 10ff 0dbd 0339 11be
00000370: ff12 763e 9aa0 bdbd 1015 bc3d 7cb4 f93b
00000380: d14f d03a 83d1 10be 8a45 24be 2c86 393d
00000390: ccad 15bd 0a48 693e 1be9 d83d d4fe 01bd
000003a0: 7cef 9a3d b684 3ebe 7145 f6bd 9354 03bd
000003b0: 65eb 183e 859c dcbc f851 db3d 0e28 3f3e
000003c0: 45dd 6a3d 6c8c b63c 2649 efbd da9a 3b3e
000003d0: 7a2e c63d e699 e53d 17aa 313d d132 cf3d
000003e0: 7003 5cbe 5eb8 dcbd 83ad bebd a0e7 ebbd
000003f0: 8694 b23d eab5 563d 865e 053e 6cb7 073e
0.08892565 0.32924774 0.17214184 0.28746682 -0.0026838242 0.22883065 -0.08295663 -0.038552254
-0.12040243 -0.00861193 0.11597672 -0.17168216 0.10873085 -0.011421854 -0.11732642 -0.08301917
-0.04185864 -0.24755421 0.06648472 -0.117707066 0.04946243 -0.03181804 0.2108011 -0.060118213
0.09132488 0.0911908 0.0073660123 -0.13641913 0.05058592 0.11968846 -0.13521223 -0.19840737
0.16704984 -0.036669124 -0.17083855 0.11751758 -0.13952656 0.0019097024 0.25100034 0.1323325
-0.2510882 0.11484036 0.2693456 -0.14978114 0.0389195 -0.04879621 -0.052735604 -0.054100648
0.19547457 -0.111346066 -0.09800734 0.07843456 0.119121216 -0.14392407 -0.13457991 0.1356691
-0.2003383 0.13161698 -0.009863407 0.005604072 -0.029741805 -0.11818892 -0.09375437 0.15057707
0.19349656 0.181316 0.2728169 0.16692531 -0.071945384 0.15625215 0.13193044 0.07292715
0.01405393 0.18089354 -0.16359235 -0.19347405 -0.09743157 -0.11729211 -0.050526813 -0.13434099
-0.1567188 -0.1308914 0.100128464 0.2249612 -0.048152328 0.06242938 0.1811297 0.013655446
-0.2673506 -0.1690776 -0.014602865 0.15933104 -0.011120258 0.08855598 0.1052599 0.07640777
-0.13915007 -0.19104865 -0.1482379 0.14205691 0.009084143 0.18692707 -0.20873909 -0.15103735
0.020122705 -0.10079824 -0.17583029 -0.069435045 0.069504894 0.13802087 0.004649111 0.062245928
0.10564316 0.10126265 -0.13781433 -0.1745864 -0.24427882 0.23253858 0.106894016 0.14125971
0.14972226 0.12913571 -0.031033285 -0.21960485 -0.1912156 0.13862398 0.18173663 0.19299804
0.019923726 -0.1389443 -0.17736283 -0.1400524 -0.15918206 -0.13764657 -0.028941954 -0.20376241
0.021226024 -0.077914156 -0.08184444 -0.17548029 0.075456694 -0.22042072 -0.030684672 -0.072361685
0.26357812 0.08907937 0.12396135 0.21967584 -0.051651187 0.19498034 0.19118263 -0.08343872
0.19320363 0.0876955 -0.18517224 -0.0142809125 0.06459071 -0.0855009 -0.24500553 -0.02469909
0.06266332 0.014293867 0.055724535 -0.16340141 -0.12686574 0.20068431 -0.0033187005 -0.090927444
0.16647185 0.20420496 -0.013970682 0.26063555 -0.184548 -0.25048238 0.095297866 0.014197989
0.01822342 0.15709484 -0.22916578 -0.15994632 0.24127486 0.05289115 0.10433538 0.10053263
-0.17721698 -0.11618122 0.1364812 -0.08486222 -0.000101513506 -0.012687086 -0.090371616 -0.32222575
0.06352131 0.02335169 -0.25130817 0.18798433 0.16483794 0.070548244 -0.0038986248 -0.014331814
-0.17856959 0.12699725 -0.01047649 0.021033878 0.23526193 0.19296055 -0.0023278613 -0.10010641
0.07411087 -0.20530905 -0.07657933 0.093676664 -0.18110618 -0.11205122 0.16558637 0.18774143
-0.092542216 -0.11917915 -0.034667075 -0.14181904 0.24030684 -0.09259148 0.09183705 0.0076203924
0.0015892928 -0.14142422 -0.16042152 0.045293972 -0.0365427 0.22781387 0.10591336 -0.031737164
0.07565209 -0.18605313 -0.12024964 -0.032063078 0.14933546 -0.026930103 0.10708994 0.18667623
0.057339925 0.022283755 -0.11683874 0.1832079 0.096768335 0.112109944 0.0433751 0.10117114
-0.21485686 -0.10777353 -0.093104385 -0.11518788 0.08719735 0.05241958 0.13024339 0.13253564

conv1.bias f4 [28]
00000000: 07c9 0b3e 2472 debd 16ce 05bd 253e 473e
00000010: 0f77 573b 6eb0 a93d 8050 bdbc 9be6 cbbc
00000020: 010a c9bd 5f38 a03d 4bed 033e 3c49 f1bc
00000030: f7bd 3d3d ef32 d23c df44 4b3e dc2f ea3d
00000040: cfda 67be 482f 5b3c e659 ecbd 42dc cdbd
00000050: 36e4 5bbe d648 a9bd 97a6 39be 74e6 c93d
00000060: 6899 6dbd 3991 0fbe debf 0d3e 679f b53d
0.13650905 -0.10861614 -0.032667242 0.194573 0.003287736 0.082856044 -0.023109674 -0.024890235
-0.09816361 0.07823252 0.12883489 -0.029453866 0.046323743 0.025659053 0.19850491 0.1143491
-0.22642063 0.013377972 -0.11540584 -0.100517765 -0.21473774 -0.082658455 -0.18129955 0.098584086
-0.058007628 -0.14020242 0.13842723 0.08868294

bn1.weight f4 [28]
00000000: d26c 5e3f ab87 883f 9799 4f3f da80 7e3f
00000010: 62a4 8f3f 671d 8d3f 33c3 743f c721 8c3f
00000020: 506b 653f a937 883f 72da 8a3f 527e 833f
00000030: a59c 263f 744d 973f 9597 953f 392c 723f
00000040: d0bb 8d3f 37a3 7f3f 6cd7 793f 3fd5 563f
00000050: fb57 6f3f f424 543f 41db 843f 9ab0 703f
00000060: 87fd 823f 8db2 7f3f a235 843f 2aaa 423f
0.86884797 1.0666403 0.81093735 0.9941536 1.1222041 1.1024598 0.9561035 1.0947808
0.8961687 1.0641986 1.0847914 1.0272925 0.6508277 1.1820512 1.1686884 0.9459873
1.1072941 0.9985842 0.9759433 0.8391914 0.9349362 0.82868886 1.0379411 0.9401947
1.023362 0.9988182 1.0328867 0.760409

bn1.bias f4 [28]
00000000: 7ee6 3cbe 63f5 583e 1df6 a9bd 9833 b9bd
00000010: 7846 8e3e 4424 a03e b513 b8bc 7627 9a3e
00000020: 97f8 633e f974 43bd fc4f b0bd 8277 2ebe
00000030: 2595 0cbe 7200 633e 928d 473e 113a b13e
00000040: 6fb1 e13d bd85 073c c6da e03c a571 02be
00000050: ea7b 1cbe 78c5 e9bc 0079 04be cd05 e7bc
00000060: c3ee 103e c964 d7bd c89a b63d 07f5 c1bd
-0.18447301 0.21187358 -0.082988955 -0.09043044 0.27788138 0.31277668 -0.022470335 0.3010823
0.22262798 -0.047718976 -0.08609006 -0.17037776 -0.13728769 0.22168139 0.19487599 0.34614614
0.11020171 0.008271632 0.02744807 -0.12738664 -0.15281644 -0.028536543 -0.12936783 -0.028201008
0.1415358 -0.1051727 0.08916241 -0.094705634

bn1.running_mean f4 [28]
00000000: dd2b 3c3e 2763 06be 6840 51bd 2522 8e3e
00000010: 25dc d73c b6b9 1fbd 47cb e0bc a65f 40bd
00000020: aaf8 13be 58bd 943d 888e 603e 4bd1 4bbe
00000030: 09a3 a53d 1688 073d 9d94 443e e430 d43d
00000040: 8c2f 82be 9819 eb3c b70f 8cbd d06d 33be
00000050: 580f a3be cd6c 693e 002f b9be 03b0 03bd
00000060: 184a d0bd c6e9 223c 5e38 bb3d a502 913d
0.18376108 -0.13123761 -0.051086813 0.27760425 0.02635009 -0.038995467 -0.02744068 -0.046966217
-0.14450327 0.07262677 0.21929371 -0.19904058 0.08087737 0.033088766 0.19197316 0.10360888
-0.254269 0.028698727 -0.06838935 -0.17522359 -0.31847644 0.2279541 -0.3616867 -0.03215028
-0.10170382 0.009943431 0.091416106 0.070805825

bn1.running_var f4 [28]
00000000: f925 503e 1ea6 fc3c e9c0 6f3d d33d 013e
00000010: 1d60 aa3d ca25 0c3d 00a6 df3d 6a45 c93d
00000020: 7d21 043d bc37 6b3d a3b9 923d a95c 383d
00000030: 17f6 003e a5e3 903d 8f2f 7e3d 93db 543d
00000040: 65dd 163d 3b5c bc3c 5b86 273d 975b 743e
00000050: fb90 f63d 54ee 113e 5447 653d 191a 8e3d
00000060: 7f7d f53c be71 4c3e 9cc6 1a3d c0b8 eb3d
0.20326985 0.03084093 0.058533583 0.1262124 0.083191134 0.034215726 0.10920334 0.09827693
0.0322585 0.0574262 0.07164314 0.045010243 0.12593876 0.0707467 0.062057074 0.051967215
0.036832232 0.022993198 0.040899616 0.23863064 0.120393716 0.14251071 0.055976227 0.069385715
0.029967068 0.19965264 0.037787065 0.11509848

prelu1.weight f4 [28]
00000000: c2b7 dbbd af28 0a3f 46ad 16be 1f26 e73a
00000010: 2e16 fb3e 51a0 37be b117 ad3e fe5b f33e
00000020: d0ec df3e dfff 493e 7a61 21bd a2c1 f3bc
00000030: 492b e43d a47f ca3e 4e3d 4e3e 47e7 0c3f
00000040: 0572 a23e 4885 ae3e 9de0 653e 0821 763d
00000050: 5a0a 143e d655 013e bf57 d03d 5a2a 35be
00000060: 34f8 0a3e 01b6 453d 01bd cb3d 6c66 a23b
-0.107284084 0.5396833 -0.14714536 0.0017635262 0.4904036 -0.1793225 0.33807138 0.47531122
0.4373536 0.19726513 -0.0393996 -0.029755417 0.111410685 0.39550507 0.20140573 0.550404
0.31727615 0.3408606 0.22448964 0.060090095 0.14457074 0.126304 0.10172986 -0.17691937
0.13571244 0.048269276 0.09948159 0.0049560573

conv2.weight f4 [48, 28, 3, 3]
00000000: 856d 5c3c c8b1 48be 21a8 4dbe 27c1 a93c
00000010: c1af afbd 0a6c ecbd febf 573d fb8b 423d
00000020: ee9e 6d3d 8ebd b1bd bd02 49bd b4ed 72bd
00000030: 432f 51bc 1943 c23c 67ce 363c 1139 033e
00000040: 6f7b e93d 5026 ad3b 3e75 ccbc 73bc 31be
00000050: a601 9fbd 9906 e53d 53fa 7abd 7954 cbbd
00000060: 0a69 c4bc 8c23 8d3c 6b43 2abd de11 96bd
00000070: ce41 173d 0b6c 433d 8b9c 063d 1ffb 30be
00000080: bf82 c5bd b0d2 2b3d ffcc a3bd 2e9f 2cbe
00000090: ba31 0a3d 5c5d c8bd e06d 523d 1d3e a0bd
000000a0: 8937 74bd f791 41be dca6 643c ca2b 8dbd
000000b0: d56c 66be 2e51 dbbd 59a8 19be 59e0 1abc
000000c0: 611f 753c 6199 bfbd 2f85 f7bc 7c70 c93c
000000d0: e86e f7bd 816c 03be a202 8f3d 4534 373d
000000e0: 36ca 693d 21ee 763d f79b 093e e305 c53d
000000f0: 93f5 c5bb a7a6 e73c a50b 573e f1d0 3d3d
00000100: 6096 233d f3af e93c 649f 12bd 3a7f b43d
00000110: 0be9 f43b 03c3 45bd 2c53 3c3c 8539 043d
00000120: 0e8c 28bd b704 d1bc 0ae4 f33d 3fda 11be
00000130: daa7 43bd fb54 14bd fbb7 a3bd 2abf 9dbd
00000140: bdd9 0bbc 2977 7c3a 7cc6 67be 2936 21be
00000150: f42d 45be 8931 56be 086e f3bd 9967 84bd
00000160: facf abbd e4ef 4cbe 5f30 433d 5d9e 303e
00000170: a906 673d 7b4a b9bd 4345 fc3d d389 183e
00000180: 8802 96bd dce9 313e c1d4 2f3e d3c0 10bd
00000190: 6a5f 90bd 708e 6c3d fde6 d2ba 8eb9 013c
000001a0: 1bfc 093d 8a48 36bd f064 f8bd 26a4 ccbd
000001b0: 619c 413d e2cf a33d 16aa 1cbc 593b 2fbd
000001c0: 6682 ac3c 4c93 e0bc 9f7f 1a3d 2514 8c3d
000001d0: 0c8d a9bc 22a2 a4bd 84fc 663d a5c4 543d
000001e0: 6af5 ca3d ab87 eebb 07ff c93b 6751 fd3d
000001f0: 114a c33b 3702 71bc 2de6 48bd 8246 e7bd
00000200: 583b 4dbd dd72 1e3b 700e a73c 6150 c0bc
00000210: a343 bb3b 3e4e 97bd 13b9 bfbd dd78 f0bc
00000220: d365 9fbd fe9e 69bd eafc 013d 092a 27bc
00000230: f85d 123c 8cf9 193b fdd6 133d 4745 dd3c
00000240: 45de 173d b633 82bd 5eb3 aebd 95ad 973d
00000250: fe1b e1bd 16a5 0dbd 8542 9a3a ee3d 5abd
00000260: 6dc6 0ebe fee1 51bb 856b 68bd 3198 d0bd
00000270: e11b ba3d 04ad a4bc 66ab 86bd e4bd c83d
00000280: 8c2b 82bd c786 89bc 0eaa 1b3d fe75 b13c
00000290: 6ed2 76bb 4b6b 3abd 8f7a 7bbc 5770 b8bc
000002a0: 3423 023e 50fb c33d 9c48 953d 54be 9abd
000002b0: c985 42be 754c 14bc 8308 83bd 5c01 08bd
000002c0: 0bcd 38bd ed16 1abd 093f d6bc d0b3 02be
000002d0: 137c 10be e1b5 22be e4ec c6bc a74a 29bd
000002e0: 1348 23be 0dcd a4bd ed38 f93c 17ca 4c3d
000002f0: 4c5f 44bd c7f8 a33d 1f44 8ebc a684 2ebc
00000300: 73b9 053d 9618 223d 282d 963d 5c6e ebbd
00000310: ba16 793d 93cd 783d 5b8b c7bd 20fe a63b
00000320: e7fb 263e 5de3 13be f4c8 bfbc 6503 903d
00000330: 319e 16be a43f adbd 500a 5bbe e3b1 a43c
00000340: b6d2 c63c 3294 e03c c59e 05be a2a9 7dbc
00000350: eac9 e4bc c867 81bd 9c35 fdbd 1afa 17be
00000360: 7398 5a3c 2ad0 93bc 2290 de3d 2666 68bd
00000370: 0b07 62bd a943 bbbd 2a6c 1abd 12fb b0bd
00000380: e638 1bbd 053c 4c3d 2cf4 c3bc 7577 2b3d
00000390: 1410 57bd 048f 7bbd 31e9 c0bb 7bd9 1fbd
000003a0: 87ca 5bbd 6958 cebd e90f 3bbd 388c b9bd
000003b0: 8e41 883d 1f93 be3d 7186 e63b 935b 013e
000003c0: 2972 ec3d 57c4 c7bd 2cb4 44bc 820d 333d
000003d0: 238c bf3c d3e0 73bd a991 97ba 8f02 61bc
000003e0: 1bba 5ebd dfe3 bdbc b840 633d 8b32 093b
000003f0: e9c8 b13d a7b7 d9bd c041 07be 22af 38be
0.013453846 -0.19599068 -0.20083667 0.020721985 -0.08578444 -0.11544044 0.052673332 0.047496777
0.058012895 -0.08678733 -0.049074877 -0.059308723 -0.012767616 0.023713635 0.011157609 0.12814738
0.11400496 0.005284108 -0.02495825 -0.17357044 -0.07763986 0.11182899 -0.061273884 -0.09928221
-0.023975868 0.017228864 -0.0415682 -0.07327627 0.03692799 0.04771046 0.032864135 -0.17283295
-0.096440785 0.041948974 -0.07998084 -0.16857597 0.03373883 -0.09783432 0.051374316 -0.07824347
-0.059623275 -0.18903337 0.013955798 -0.06893118 -0.22502454 -0.10708843 -0.15005626 -0.009452903
0.014961095 -0.093554266 -0.030214874 0.02458977 -0.120817006 -0.1283436 0.06982924 0.044727582
0.05707761 0.06028569 0.13438402 0.096202634 -0.0060412376 0.028277708 0.21000536 0.04634184
0.03993833 0.028526282 -0.035796538 0.08813329 0.00747407 -0.04828168 0.011494439 0.032281417
-0.04114919 -0.025514944 0.119087294 -0.1424341 -0.047767498 -0.036213856 -0.07994076 -0.07702477
-0.0085358 0.00096307934 -0.2263431 -0.15743317 -0.19255811 -0.20917334 -0.11886221 -0.06465072
-0.08389278 -0.20013386 0.047653552 0.17247911 0.056402836 -0.09047409 0.12317898 0.14896326
-0.073247015 0.17374367 0.17171003 -0.03534014 -0.07049449 0.057753026 -0.0016090568 0.007917775
0.033687692 -0.044502772 -0.12128627 -0.09992246 0.047268275 0.07998635 -0.009562036 -0.042781208
0.021058273 -0.027413987 0.037719365 0.0683978 -0.02069714 -0.08038737 0.05639316 0.051945347
0.0991009 -0.0072793565 0.006164435 0.12369042 0.005959757 -0.014710001 -0.049047638 -0.11292745
-0.050105423 0.002417735 0.020392627 -0.023475828 0.00571485 -0.073879704 -0.09361472 -0.029354507
-0.07783093 -0.057036392 0.03173534 -0.010202893 0.008933537 0.0023494689 0.0360937 0.027010573
0.037077207 -0.06357519 -0.08530305 0.07406155 -0.10991667 -0.034581266 0.0011769092 -0.053281717
-0.13942881 -0.003202557 -0.056743164 -0.10185278 0.09087349 -0.020102032 -0.065756604 0.09801844
-0.06355962 -0.0167879 0.038003974 0.021662708 -0.0037662047 -0.04551248 -0.015349044 -0.022514505
0.12708741 0.095694184 0.0728924 -0.075558335 -0.18996347 -0.009051432 -0.06398108 -0.03320442
-0.04511742 -0.03761952 -0.026153104 -0.12763906 -0.1410983 -0.15889694 -0.02428288 -0.04133096
-0.15945463 -0.08046923 0.030422652 0.049997415 -0.047942445 0.08006435 -0.017366467 -0.010651743
0.03264756 0.03957423 0.073328316 -0.11495659 0.06081269 0.060742926 -0.09743377 0.005096212
0.1630703 -0.14442201 -0.023411252 0.070318975 -0.14708783 -0.08459404 -0.21390653 0.020104354
0.024270397 0.027414415 -0.13048847 -0.015482338 -0.027928311 -0.06318623 -0.12363741 -0.148415
0.013342011 -0.018043596 0.10867335 -0.05673804 -0.055182498 -0.091437645 -0.03770081 -0.08641638
-0.03789606 0.049861927 -0.023920141 0.04186197 -0.052505568 -0.061415687 -0.0058871736 -0.039025765
-0.053659942 -0.10075457 -0.04566947 -0.09059948 0.066531286 0.09305405 0.0070350696 0.12632589
0.11545212 -0.09754246 -0.012005847 0.043714054 0.023382252 -0.05954058 -0.0011563796 -0.01373352
-0.054376703 -0.023179946 0.055481642 0.0020934667 0.08680899 -0.10630732 -0.13208675 -0.18035558

conv2.bias f4 [48]
00000000: 6d79 203d 55aa 063d 49d0 6c3d 6f6d 61bb
00000010: e63b 1fbb a011 d13c 4e89 b4bc 966b 6d3b
00000020: c026 50bd 64fe 293d 9e5e 87bd 35e5 50bd
00000030: c508 b03c 6d36 6d3d 33fa 4d3d 2ae8 c53c
00000040: b770 14bd e578 f6bc 3292 80bc bad4 6c3c
00000050: 5e6f ee3b b0d8 093c dac3 2d3c 7a09 a13b
00000060: 258d 3bbd c01c 5abd 01e8 403c 3d00 28bd
00000070: 3ad6 f33c 5983 6d3d d241 193c e5b7 903c
00000080: 7f16 53b9 90dc 10ba 4b8b 453d baa9 113d
00000090: 8f44 31bc 9481 cc3c 2ec7 97bc 5188 283d
000000a0: fee0 a6ba e307 623d 6e14 d4bc 778d 553c
000000b0: bc13 84bb 6248 bb3a 26cb fdbc ddd2 0e3d
0.0391783 0.032877285 0.057815824 -0.0034397503 -0.0024297177 0.0255211 -0.022038128 0.0036227456
-0.050818205 0.04150237 -0.06609844 -0.05099984 0.021488557 0.057913233 0.050287437 0.024158556
-0.036240306 -0.030086944 -0.015694711 0.014455015 0.0072764596 0.008413479 0.010605777 0.00491446
-0.045788903 -0.053250074 0.011774064 -0.041015852 0.029765237 0.05798659 0.009354072 0.017665813
-0.00020130909 -0.00055260304 0.048228543 0.035562254 -0.010819568 0.024964131 -0.018527593 0.041145626
-0.0012731848 0.055183303 -0.025888648 0.013034216 -0.004030673 0.001428854 -0.030980658 0.034869064

bn2.weight f4 [48]
00000000: 1d4e 863f c9d9 953f bc32 893f 8b69 8c3f
00000010: 4a1f 713f 6da2 643f 6900 893f c761 893f
00000020: a2d0 8d3f f60c 833f 22b2 883f 0e33 733f
00000030: 16a6 813f 4179 6e3f bf36 663f c02f 873f
00000040: dc4d 803f 736a 883f 4000 883f caa7 873f
00000050: e26a 6b3f 5afa 643f a225 8a3f b325 833f
00000060: 6978 793f ff68 593f a08e 8b3f 2835 853f
00000070: f73b 8a3f 8470 843f 2e09 8d3f 23fc 743f
00000080: b8f2 733f 78ec 773f f576 6f3f 6739 903f
00000090: 38c3 8a3f 955c 813f c0c8 7a3f 9fb6 683f
000000a0: 58d7 793f d8d7 703f 135a 6b3f 1b31 5a3f
000000b0: fede 8a3f 57cc 813f 12c0 803f 2679 8a3f
1.0492588 1.1707088 1.0718608 1.0969709 0.9418837 0.8931034 1.070325 1.0732964
1.1079295 1.023833 1.0679362 0.9499978 1.012881 0.9315377 0.89927286 1.0561447
1.0023761 1.0657486 1.0625076 1.059808 0.91959965 0.89444506 1.0792735 1.024588
0.97449356 0.84925836 1.0902901 1.0406847 1.079955 1.0346837 1.1018426 0.9569723
0.95292234 0.968452 0.9354089 1.1267518 1.0840826 1.0106379 0.9796257 0.9090366
0.97594213 0.9407935 0.9193432 0.8523118 1.0849302 1.0140485 1.0058615 1.0818222

bn2.bias f4 [48]
00000000: 52a7 a3bd c9f9 c4bc b0da 97bc bb59 7f3d
00000010: b1f2 cdbd 3dc5 b2bd 1ca8 453d 530f 3fbe
00000020: ee9f 32be b059 853b 4faf 77be 4c95 4dbe
00000030: 94b3 18be 1f35 b43c c1c3 03be 4c3a 00be
00000040: 0ffe 12be 02af 4dbe 56aa a1bd 55ff 3ebd
00000050: ba65 68be 291d 1ebe 881e 52bd f104 18bc
00000060: 9aec 14be 43dc 09be f015 f3bb 475a 81bd
00000070: cde5 6abe 4a68 05be 0f77 e63b d007 f6bd
00000080: f15a 00be 2f43 9bbe facb 05be 3c7f 5cbe
00000090: 9fa1 52bd efc4 97be 5a67 3fbe 475b 80bd
000000a0: 47b5 30bc 2e2f 8ebe c9fe 00be f165 bbbd
000000b0: f20d 45bd 0e5f 5bbe 3c84 b0bd 4926 f1bd
-0.07990898 -0.024044888 -0.018536896 0.062341433 -0.10056055 -0.087290265 0.048256025 -0.1865819
-0.17443821 0.0040695295 -0.24187969 -0.20076483 -0.14912254 0.021997986 -0.12867643 -0.12522238
-0.14354728 -0.20086291 -0.07893817 -0.046630222 -0.22695056 -0.15440811 -0.051298648 -0.009278522
-0.14543381 -0.1346293 -0.0074183866 -0.06316047 -0.22939225 -0.13028064 0.007033236 -0.12013209
-0.12534691 -0.30324695 -0.13066092 -0.21532911 -0.051423665 -0.29642436 -0.18691769 -0.0626741
-0.010785407 -0.2777037 -0.12597193 -0.09150303 -0.048109002 -0.21422979 -0.08618972 -0.117748804

bn2.running_mean f4 [48]
00000000: 9ca9 82c0 1a21 d8bf 59a1 40c0 2c06 62c0
00000010: 8b65 02bf 9d6f 5cbf 5abb 2ec0 e356 ccbf
00000020: bf50 a7c0 ed0a b4c0 cfe4 f8bf c15f bfbf
00000030: 747c d3bf a4eb 3cc0 171b 8c3f 135e 09c0
00000040: 62df e6bf 2083 8ac0 f7c4 8abf ae18 aec0
00000050: 096a 7e3f 8246 f73e 58d1 3fc0 330c 5dc0
00000060: 989f 55be 13a6 c3bf 5fa1 56c0 a028 9fc0
00000070: c92b 4ec0 9ea3 48c0 d5a8 96c0 1b25 20c0
00000080: 84b9 17c0 3feb 7dc0 cdaa 533f c740 89c0
00000090: 1ae3 49c0 47c8 56c0 4a36 f8bf be16 02c0
000000a0: e191 1ac0 384b 393e d8e4 5c3f 7822 df3f
000000b0: 5048 d2bf 7a06 09c0 c468 debf 68b2 27c0
-4.0832043 -1.6885102 -3.0098479 -3.5316267 -0.5093619 -0.8610781 -2.730185 -1.5964016
-5.2286067 -5.6263337 -1.9444827 -1.4951097 -1.6522355 -2.9518824 1.0945767 -2.1463668
-1.8036921 -4.3285065 -1.0841359 -5.4405127 0.99380547 0.4829598 -2.9971523 -3.4538696
-0.20861661 -1.5285057 -3.3535993 -4.973709 -3.2214224 -3.1349864 -4.7081094 -2.5022647
-2.370698 -3.9674833 0.82682496 -4.2891574 -3.1544862 -3.355974 -1.9391568 -2.032638
-2.4151537 0.180951 0.8628669 1.7432394 -1.6428318 -2.1410203 -1.7375722 -2.620264

bn2.running_var f4 [48]
00000000: 0f8f 0a41 7924 be40 4f80 9e40 c6b1 ab40
00000010: c335 b040 c4a8 8b40 0cde e240 b3a1 8e40
00000020: c7b3 3341 db9f 6141 8f51 3940 f1a2 7e40
00000030: 05a7 b540 ff60 3c41 ce4b bb40 4744 7340
00000040: 90fb 8540 3614 2d41 ffa8 8540 332a 5341
00000050: bba6 c240 f8be 1c41 3c83 c940 b7b1 d240
00000060: aaa2 de40 0786 4840 a306 ea40 65c7 3341
00000070: f1d0 2a41 c52a e940 4146 3141 2f09 e140
00000080: 94a1 e340 e33c 1d41 838c 8040 cd7e e340
00000090: 2112 2041 c6b7 0741 ceb7 b240 27f4 9440
000000a0: 6774 8140 f083 9e40 6101 b240 c5db 8a40
000000b0: 6ae6 3140 416d d540 0620 3f40 0ca3 c640
8.659926 5.941952 4.9531627 5.365451 5.5065627 4.3643513 7.0896053 4.4572387
11.231391 14.101527 2.895603 3.9786952 5.676638 11.773681 5.8530035 3.8010423
4.1869583 10.817434 4.1768794 13.197803 6.082853 9.796623 6.29727 6.5841937
6.9573565 3.1331804 7.31331 11.23618 10.676011 7.286471 11.079652 7.032371
7.113474 9.827365 4.0171523 7.1092286 10.004426 8.482367 5.584937 4.6548038
4.0454593 4.9536057 5.5626683 4.3393273 2.7796884 6.6695867 2.9863296 6.207403

prelu2.weight f4 [48]
00000000: d2df d53c 12c6 f23d 05d7 5c3e e90e 6f3e
00000010: 90e1 c33d 5b4f 633e 1620 a23e 1271 d93d
00000020: 464a 343e b03b bf3e 423c 063e 6930 513d
00000030: 851a 0b3e eb88 9d3e 9eea 073e c6e8 863e
00000040: 3172 2e3e e8d7 103e cedc 8b3e 866d 053e
00000050: 3ccf 053d f646 0f3e dc3b 2f3e f1bd bf3d
00000060: 8884 85bc 0a52 993d df73 533e f69b 813d
00000070: 0159 b73d 0014 623e 5c26 b13d cc98 4d3d
00000080: 5bb9 1e3e c796 dfbc afeb f03d 49a1 39bd
00000090: 9417 593e 9cc4 bb3d ce65 323e 80e2 ba3e
000000a0: f56c 573e 3442 943d c987 aa3d 1f32 9f3d
000000b0: b948 343e cda7 333e 5ad2 a23c 11fc 783e
0.026107702 0.11854185 0.21566398 0.23345532 0.09564507 0.2219824 0.31665105 0.106172696
0.17606458 0.37350225 0.13108924 0.05107156 0.13584335 0.30768523 0.13273093 0.26349467
0.17035748 0.14144862 0.27316898 0.13030061 0.032668337 0.13991913 0.17112678 0.093624
-0.016298547 0.07486351 0.2064967 0.06328575 0.08952523 0.22077942 0.086498946 0.050194547
0.15500395 -0.027293576 0.11763703 -0.04531983 0.212004 0.0916836 0.17421648 0.3650093
0.21037658 0.0723919 0.0832668 0.07773232 0.17605866 0.1754448 0.019875694 0.24314906

conv3.weight f4 [64, 48, 2, 2]
00000000: d86b f43d 9b79 9c3d 7e55 5f3d 8836 b93d
00000010: 670c 30be 3c43 b83c 1237 23be 2940 eebc
00000020: 1551 1fbd 7d93 893c 70c8 c73d 0fab 2c3e
00000030: 7e57 3abd 79d3 cd3c 9cac 8bbd ff4f a03d
00000040: 7c3a 0cbc 4eab 0abe c13b 77bd 9c9c 24be
00000050: aef0 2f3d 89e2 acbd 7a55 e9bc cfaf 783d
00000060: b3f8 aa3d 37ab 873d 40fb 493c 51c0 a23c
00000070: d426 bf3d f3c6 1ebc a138 6bbd e342 9fbc
00000080: 5769 d0bd ccb6 1f3c eafc 23be fc7e 69bd
00000090: d159 bb3b b71e babd d4d1 853d e84b 92bd
000000a0: 1706 9cbd e104 9fbb cf78 37bd bcc8 bb3b
000000b0: 9b4a 543b 14e1 563d 788b be3c b7f2 a33c
000000c0: 9f4d 7dbd 4765 ae3d e897 2fbd fa0b 4f3c
000000d0: 53f3 99bd c4a2 afbd b684 81be ef1a 97be
000000e0: b21e 19bd 2a24 f5bc c129 cbbd 7284 d23c
000000f0: b8a9 babc eee5 94bd 8911 a1bd 378d 643d
00000100: b809 a6bd f320 b83c 2587 963c c727 7cbd
00000110: 281a cabd 814a 10bd 1a21 6cba 92fd 19be
00000120: e7ad 0ebb 8c70 243d e375 49bc 168f e03d
00000130: 1041 b7bc f8c4 253d 1dc8 babd 727a aebb
00000140: 791d cd3b a775 e0bc 766e c1bc 9ed4 5cbe
00000150: 980b 34bd 9e5c d2bd 5488 ffbb 44a5 1bbe
00000160: e73b 393e b37f e6bd abea afbd ef5d 2ebe
00000170: ed03 d9bd 4b0a a33d d62d 7dbd b91b e23c
00000180: 8052 b03b 292e 103c 33cd 49be 7914 1fbe
00000190: a483 483c 1fbb 8e3b a655 0d3e 1135 5abd
000001a0: fb69 bb3d c834 73bd 363d 58be 6602 4dbe
000001b0: 67ad e6bd 234f afbc a7cd 9bbd d833 213d
000001c0: 7f2e 44bd 1ba7 9c3c f994 b4bc 4314 a3bd
000001d0: c57b 3e3d 3094 873d 0ac2 923c 31ea a6bd
000001e0: a1a6 2fbe 4260 4abd 0668 e73d d885 2b3d
000001f0: 79d9 353e 2f4a 373d c027 a5bc 0982 3b3d
00000200: 14be 0ebe 593e 7f3d 3812 55be 734e 3cbe
00000210: 307a 4b3d 05e9 f2bc 8edd bfbc 439d 21bd
00000220: 0ab2 61bd 003e 4fbd ad8e 2ebe 6088 61bb
00000230: 6ae8 573c e68c 763d 61c4 38be 9007 c13d
00000240: 6d5c 603d af9d 153d d5d5 8abe 6bc2 243b
00000250: a804 0b3d 8f88 babc 23a2 e63d 559d b13d
00000260: 26b1 0dbe ab00 a8bd ed16 03be 3a44 19bd
00000270: 0cad 96bd fcd4 9f3d a0fb b13c 6054 183c
00000280: 9987 113d 2bba ccbd 7dae ef3c 4658 193d
00000290: 62a6 683d d500 823d 5543 353d de4f 103b
000002a0: d6c0 3bbd 8395 7bbd 0ec3 3abd c0b0 adbd
000002b0: 111a 15bd 0556 90bd 9d68 913c 9c4a d7bb
000002c0: 04a1 c4bd 85c5 03be 3d46 293d b8c1 94bc
000002d0: 6bf9 303e a24c 94bd fb74 e53d b69b 7abe
000002e0: 5b00 b0bd 8f96 3dbd 5390 fc3c ccc1 a6bb
000002f0: 4f64 dcbd ca50 f4bd 575c a13c c8ed c63d
00000300: 6c5f 2e3c 1126 8fbc 4906 213d bc2d 68bc
00000310: aac2 d3bd 4608 563c a9db a9bd 9a99 0d3d
00000320: 0dd1 c1bd c0f2 dfbc a97a 44bd 179a c138
00000330: 1587 1ebe a9cb 2c3d 2c37 723d 1939 023e
00000340: 6dcb 903c 2d9f 1f3e dc4c d0bd 7c13 05be
00000350: 5f19 46bc 3794 b73b 57e8 a4bc 10c4 083d
00000360: 7d43 53bd dd6b eb3d f700 26be 3a5c 19bd
00000370: 623c 1bbe cac1 a83d 788d 69be 4696 2bbd
00000380: 4e6a 803d 6969 eebd f51e 953d f3ba ea3d
00000390: 3bb6 853d 93d5 03bc e8f2 1cbd fa78 593c
000003a0: 0f58 acbd bd34 d3bb 9d8f d0bc d2ed f0bd
000003b0: d82b 043d ff28 063e cd45 a7bd 5e24 32bd
000003c0: c1ec 543d 2cb0 2fbc b52f c53c 5156 c03c
000003d0: 6378 ce3d dfa0 ae3c 8486 97bd c057 a1bd
000003e0: 75ac 3b3d 5858 e1bc 2fd4 b5bc 66b9 5fbc
000003f0: 6d62 d1bd 9313 3e3d 8866 28be 5db4 bc3d
0.11934632 0.07640382 0.05452489 0.09043604 -0.17192231 0.022492997 -0.15938976 -0.029083328
-0.038895685 0.01679396 0.09755027 0.16862129 -0.045493595 0.025125252 -0.06820032 0.07827758
-0.008558866 -0.1354191 -0.06035972 -0.16075367 0.04295414 -0.08441646 -0.028483141 0.06071454
0.08348217 0.066244535 0.012327969 0.019867094 0.09333578 -0.009690988 -0.057427052 -0.019441074
-0.10176342 0.009748172 -0.16014448 -0.057005867 0.005717494 -0.0908789 0.06534162 -0.07143384
-0.07618349 -0.0048528765 -0.044792946 0.0057307165 0.00323931 0.052460745 0.023259863 0.020013196
-0.061841603 0.08515411 -0.04286948 0.012637133 -0.075171135 -0.08575967 -0.25296563 -0.29512736
-0.03738279 -0.02992447 -0.09920073 0.02569792 -0.022786006 -0.07270418 -0.07864673 0.055798735
-0.081073225 0.022476649 0.018374989 -0.061561372 -0.0986827 -0.035227302 -0.0009007618 -0.15038136
-0.0021771134 0.040146396 -0.012296173 0.109647915 -0.022369891 0.040471047 -0.091202 -0.005324655
0.006259617 -0.027399851 -0.023612242 -0.21565482 -0.04395637 -0.102715716 -0.007798234 -0.15199763
0.18089257 -0.112548254 -0.08589681 -0.1702802 -0.10596452 0.079609476 -0.06181129 0.02760111
0.0053809285 0.008800068 -0.19707184 -0.15535153 0.012238417 0.0043558027 0.13802204 -0.053273264
0.091510735 -0.059376508 -0.211171 -0.20020446 -0.112635426 -0.02140004 -0.076075844 0.039356083
-0.047895905 0.01912265 -0.022043692 -0.07962849 0.046504755 0.066200614 0.01791479 -0.08150137
-0.17153408 -0.049408205 0.11299138 0.04187569 0.1775874 0.04474848 -0.020160556 0.045778308
-0.13939697 0.06231532 -0.20807731 -0.18389301 0.049677074 -0.029652128 -0.023421075 -0.039456617
-0.055101432 -0.050596237 -0.17046614 -0.0034413561 0.01317797 0.060192965 -0.18043663 0.094252706
0.054775644 0.036527332 -0.27116266 0.0025140296 0.033939987 -0.022770194 0.11261394 0.08672587
-0.13837108 -0.082032524 -0.12801714 -0.03741858 -0.07357225 0.078042954 0.02172643 0.00929746
0.035529707 -0.09996446 0.029258007 0.0374377 0.0567993 0.06347815 0.044253666 0.002202026
-0.0458382 -0.061421882 -0.045596175 -0.08480978 -0.036401812 -0.07047657 0.017750079 -0.0065701734
-0.09601024 -0.12868316 0.04132675 -0.018158779 0.17282645 -0.07241179 0.11203953 -0.24473462
-0.08593818 -0.046286162 0.030830538 -0.0050890204 -0.1076132 -0.11929472 0.019697351 0.09713322
0.010642868 -0.017474206 0.039312635 -0.01417106 -0.103398636 0.013063496 -0.0829385 0.034570314
-0.094637014 -0.027337432 -0.04796854 9.2316586e-05 -0.15481217 0.042186413 0.059134647 0.12717094
0.017675126 0.15588064 -0.1017091 -0.12995714 -0.01209101 0.0056023854 -0.02013032 0.033390105
-0.051578034 0.11495183 -0.16211306 -0.03744147 -0.15159753 0.08240087 -0.22807872 -0.04189136
0.06270276 -0.11641199 0.07281295 0.11461439 0.06528898 -0.0080465255 -0.03831759 0.013273472
-0.08415233 -0.006445496 -0.025459105 -0.117641106 0.032268375 0.13101576 -0.0816761 -0.043491714
0.0519836 -0.010723155 0.0240706 0.023478659 0.10081556 0.021316944 -0.07398704 -0.07878065
0.045818765 -0.027507946 -0.022195904 -0.013655042 -0.10223851 0.046405386 -0.16445363 0.09214089

conv3.bias f4 [64]
00000000: b58c 763d c7cc f23c 6ef9 24bd 41dd 923d
00000010: 0348 afbc df55 3abc a17c dd3c f37f 2e3c
00000020: cc20 59bd 51f2 33bd 257c 863d fc75 54bb
00000030: 610d 13bc 7ed2 1cbd 1280 023d 7e65 9f3d
00000040: 034a 88bc c6bd a6bd d8f2 90bc e3fa 253d
00000050: 8ddc a0bc c9fe 383d 4637 44bc 9cf8 ef3c
00000060: 6534 23bd 22d2 4f3c 3f8d ab3d a17f 7fbd
00000070: 65e9 c23c 1923 333d 03d8 2cbd 7f1a a23c
00000080: 77a0 ca3c 39ff 353c 3ab7 923d 61c5 89bd
00000090: 3051 8cbd cf5e 333d 1ae9 e93c f6e6 6d3d
000000a0: baa5 703d 9b5d 813d 0d6f 2a3d 0629 89bd
000000b0: c287 6f3d 0f84 a43d 6c30 733d 7918 d03c
000000c0: 0343 1f3d ee61 153d 22dd 523d eedd 953c
000000d0: 7227 313d f24d d93c 7187 babc 695e 693d
000000e0: 06a2 0a3c 36ca 1fbd 0d2f 67bd 926e 143c
000000f0: 9b39 623d 39c2 5c3d 38cd 4fbd 457e 06bd
0.060192782 0.029638661 -0.040276937 0.07171107 -0.021396643 -0.011373012 0.027036967 0.010650623
-0.053009793 -0.043932263 0.065666474 -0.0032418957 -0.008975358 -0.03828668 0.03186042 0.0778303
-0.016636854 -0.08141665 -0.017693922 0.040522467 -0.019636417 0.045164857 -0.011976069 0.02929335
-0.03984489 0.012684377 0.0837655 -0.062377576 0.023792932 0.043734644 -0.042198192 0.019788025
0.024734719 0.011108213 0.07163854 -0.067271 -0.06851423 0.04379159 0.028553534 0.05808159
0.0587518 0.06316682 0.041609813 -0.06697278 0.058479078 0.08033001 0.05937235 0.025402294
0.038882267 0.036470346 0.05148042 0.0182943 0.04325051 0.026526425 -0.022769662 0.056974802
0.008461481 -0.039011203 -0.056441355 0.009059565 0.055230718 0.053896163 -0.05073282 -0.032835264

bn3.weight f4 [64]
00000000: ae47 5b3f 08cb 893f a0e4 513f 183a 5b3f
00000010: 2823 443f cb75 583f 58a8 5d3f 87f0 403f
00000020: 7d85 803f 8bd7 813f c757 753f 9b4c 783f
00000030: e874 7f3f cd92 883f b528 8f3f 968d 673f
00000040: 9689 523f 1d6f 7a3f 89f6 7b3f fcc4 713f
00000050: 73b2 5d3f 352a 793f e37a 793f 6011 4a3f
00000060: e02c 773f 2488 753f 726d 733f b08b 863f
00000070: a4a9 883f 00e6 633f 235a 573f 4529 593f
00000080: 1793 713f f979 823f 2111 783f eadb 803f
00000090: eacf 723f 2449 633f 1862 613f e687 903f
000000a0: 09cc 7d3f 92e1 663f e7a5 7c3f a7eb 7a3f
000000b0: 9a0b 643f 75fa 7e3f 9f26 5f3f 9437 6f3f
000000c0: 5232 873f 75cf 773f 93fc 693f 63bb 853f
000000d0: f60c 833f a5d9 843f 58f8 6a3f 2477 8e3f
000000e0: b7a4 823f 474c 783f 38d8 803f 2102 883f
000000f0: b35d 6a3f 91ed 5b3f 32fc 823f d52d 6c3f
0.8565625 1.0765085 0.8198948 0.8563552 0.76616144 0.8455474 0.86585 0.75367016
1.0040737 1.0143903 0.9583706 0.9699189 0.9978776 1.06698 1.1184298 0.9045042
0.8224119 0.97825795 0.9842306 0.944412 0.86600417 0.9733003 0.97453135 0.7893276
0.9655285 0.9591086 0.95088875 1.0511379 1.067677 0.8902283 0.8412191 0.848286
0.94365066 1.0193473 0.96901137 1.0067112 0.948485 0.8878348 0.88040304 1.1291473
0.9913946 0.90187943 0.98690647 0.98015827 0.890802 0.9960092 0.87168306 0.9344418
1.0562232 0.9680093 0.9140102 1.0447811 1.023833 1.037892 0.9178519 1.1130109
1.0206517 0.9699139 1.0065985 1.062565 0.91549224 0.8590937 1.0233214 0.92257434

bn3.bias f4 [64]
00000000: 9bd9 8cbd 4901 04be 2297 20be 0670 86bd
00000010: 8045 8ebe e6ae 4bbe 44b9 18be e861 05be
00000020: 15bd 32be 7eed 2ebc 1eb5 dbbc e519 f0bd
00000030: 1404 4abd 8e26 0cbe c732 18be 2030 35be
00000040: ecfc d7bd 40a9 0ebe 4839 f6bb 459c 1abe
00000050: 8b65 8bbe a116 87be 17ef 2ebe 373f 36be
00000060: 0e12 42be e668 cbbd b060 ecbd ce3e 9cbd
00000070: d937 2dbe 742d 22be 7b86 8bbe a6e9 37be
00000080: 32c6 45be b6c8 64be 1f4b 55be 96d3 84be
00000090: 840a e4bd ab9d 12be a6e2 a1be 5c36 1ebe
000000a0: ebc5 bbbd 50b9 fabd f11f c5bd d7eb a1be
000000b0: 9932 d9bd 3756 a1bd c9bf 25be ed52 a3bc
000000c0: 7849 2dbe accd 13be 6169 51be 9a28 e4bd
000000d0: eae2 41be 659d 4dbe 3737 35be 6952 11be
000000e0: f022 3fbe cbec 39be 28c9 b1bd dc5b afbd
000000f0: 6ed4 b8bd 4677 06be 65e6 36be a698 0dbe
-0.068774424 -0.12891115 -0.15682653 -0.065643355 -0.277874 -0.19890937 -0.14914423 -0.1302563
-0.17454942 -0.01067674 -0.026819762 -0.11723689 -0.049320295 -0.13686582 -0.1486312 -0.1769414
-0.10546288 -0.13931751 -0.0075141527 -0.15098675 -0.2722591 -0.26384452 -0.17083393 -0.17797552
-0.189522 -0.09932117 -0.11541879 -0.076291665 -0.16915835 -0.15837651 -0.27251038 -0.17960224
-0.19313887 -0.2234219 -0.20829438 -0.25942677 -0.11134818 -0.14317958 -0.31618232 -0.15450424
-0.09168609 -0.12242377 -0.09625233 -0.31625244 -0.10605354 -0.07877772 -0.16186441 -0.019937003
-0.16922557 -0.14433926 -0.20450355 -0.11140557 -0.18934217 -0.20079572 -0.17696844 -0.14191593
-0.18665671 -0.18156736 -0.08680946 -0.08562443 -0.09024893 -0.13131437 -0.17861326 -0.13827762

bn3.running_mean f4 [64]
00000000: 0e62 4ec0 0f94 06c0 dd32 a73d 4c93 fcbe
00000010: 9094 24bf cb44 a93e 74b7 7fbf bcd0 8cbf
00000020: dffa b23e a61f 9bbf dd0b 8cbf 83f8 8ebf
00000030: 3b88 01bf 813b 0bbd f23d 0940 4b8c bdbe
00000040: d859 30c0 eadc 4fbe 46ca 0dc0 0ccf d3bf
00000050: 2a3d 0c40 4bdc 223d 2db7 df3e 09ff 463f
00000060: 3a1c 65bf bf91 e0be 0d57 4ac0 e152 43bf
00000070: 56a5 38c0 3200 efbe c241 f13f 83b6 5bbf
00000080: 15a6 2d3f 3dd7 a7bf 605d 13c0 46fd fabe
00000090: 940a dbbe 9fcc 2ec0 eeec ad3e b4d2 7dbf
000000a0: c90b 48bf 9865 6ebf 0285 07c0 f0ce c8be
000000b0: 04ff 0bc0 d6a6 373f fb35 9fbf 71f4 02c0
000000c0: 9aaa edbf 8f64 b9bf 9776 1c40 8809 09c0
000000d0: b71e f4bf 5fd6 d7bf dbe7 0b40 7bb6 e2bf
000000e0: 16ce 4fbf bae6 e0bf 02af 1740 a062 d4bf
000000f0: fae1 3dbf 96c9 a6be be19 9cbe 1ebb ddbf
-3.2247348 -2.1027868 0.08163998 -0.4933113 -0.6428919 0.33060297 -0.998893 -1.1001201
0.34957024 -1.2119033 -1.094112 -1.116959 -0.50598496 -0.033992294 2.1444058 -0.37021098
-2.7554836 -0.20299116 -2.2154708 -1.6547561 2.1912332 0.03976087 0.4369444 0.777329
-0.89496195 -0.43861195 -3.1615632 -0.7629834 -2.8850913 -0.46679837 1.8848193 -0.85825366
0.67831546 -1.311256 -2.3025742 -0.49021357 -0.42781508 -2.731239 0.33969826 -0.9914963
-0.7814298 -0.9312377 -2.1174932 -0.3922038 -2.18744 0.71738946 -1.2438349 -2.0461695
-1.8567688 -1.4483813 2.4447381 -2.1412067 -1.9071873 -1.6862296 2.1860263 -1.7711939
-0.8117384 -1.7570412 2.3700566 -1.6592598 -0.7417294 -0.32575673 -0.3048839 -1.7322729

bn3.running_var f4 [64]
00000000: 764f af3f 9290 1b40 572b 9a3f 71bd 0740
00000010: cc75 163f 78b8 ca3f 5c6c 8b3f f9e5 513f
00000020: c910 eb3f f0ae 2540 b470 a13f 0476 323f
00000030: 0808 1340 8ab5 4040 ca00 0240 0aa8 dc3f
00000040: b2a4 b83f c570 9a3f 3af5 c73f 1bbd bd3f
00000050: ba06 bb3f 135e b53f aaa1 d83f 0173 893f
00000060: 3f46 983f 0f84 1f40 0d4e c53f 73dd 5e3f
00000070: 2074 c93f 8149 d23f 5972 833f b7cd a03f
00000080: 3444 fb3f 2592 0340 10a9 863f 6270 ab3f
00000090: a45a 0f40 76c7 c13f 88b7 883f 16dd db3f
000000a0: 5191 f03f 4c36 923f 5f1e c13f 0de2 b43f
000000b0: 550b aa3f ccc6 843f b342 803f ec34 9d3f
000000c0: 76b6 ab3f 84a0 533f 85b1 bc3f a112 9b3f
000000d0: 99b1 0840 c504 a73f f910 0940 e9a0 ce3f
000000e0: 74fd ae3f 4db5 af3f 0d6d fa3f 68ce 9b3f
000000f0: c6f9 8e3f 547e f33f ca4a e23f 2fe8 0240
1.3696125 2.4306989 1.2044476 2.1209376 0.58773494 1.5837545 1.0892444 0.81991535
1.8364497 2.5888023 1.2612519 0.6971133 2.2973652 3.0110803 2.0312982 1.7238781
1.4425261 1.2065665 1.5621712 1.4823335 1.4611428 1.4169334 1.6924336 1.0738221
1.1896437 2.4924352 1.5414444 0.87056655 1.5738564 1.6428682 1.0269271 1.2562779
1.9630189 2.055795 1.0520344 1.3393672 2.2399073 1.5138996 1.0681009 1.7176845
1.8794347 1.142282 1.5087394 1.4131485 1.3284708 1.0373168 1.0020355 1.2281775
1.3415058 0.826668 1.4741675 1.211506 2.1358397 1.304833 2.141661 1.6142856
1.3671098 1.3727204 1.956453 1.2172365 1.1169975 1.9022927 1.7679074 2.0454214

prelu3.weight f4 [64]
00000000: 4e47 e53d 922e e8bc 5f56 f03d 5746 b83d
00000010: 06d5 033e 4686 f63d 1079 fc3d e7dc f93d
00000020: 667d bcbc 8c21 d43b eaf6 1a3d 8328 453e
00000030: b2ab aa3d 1fdd 913d c7c2 cc3b 5d55 6cbc
00000040: b9a0 f83c a06f 34bd a31b 20bd dc8b ad3b
00000050: f179 c8bc c4eb 99bc 172a 073e 9273 f73d
00000060: d3fc ef3d 5a83 5a3d 29a9 823b 6e70 893d
00000070: bd5b b53d 6ef8 8a3c b8c9 783d 5224 083d
00000080: bd19 933d 7c9e c43d 1dbf 5d3d 9dcf 55bd
00000090: e3f1 bd3d 8627 b2bc 3105 f43d 2c3b bc3c
000000a0: b8d1 1e3d dbbf db3d af67 da3c 42e6 2e3e
000000b0: daa6 093c 8633 6a3d 4861 69bb a199 0c3e
000000c0: 206f e0bc 8322 fb3d 2cf8 a3ba bf5a f63b
000000d0: 4dfe 143d 7db9 7a3d 5ba6 143d 0eb6 b0bc
000000e0: d647 35bd 19ee 4cbb e1ab ffbc 65f6 a13d
000000f0: b0ce 2d3d b096 823d bd05 d63c 4e93 573c
0.11195241 -0.028342519 0.11735224 0.08997791 0.1287423 0.120373294 0.12327778 0.12200337
-0.023009013 0.0064737257 0.03783313 0.19253735 0.083335295 0.071222536 0.006248805 -0.014424649
0.030350076 -0.044051766 -0.039088856 0.0052962136 -0.024472209 -0.01878918 0.1319965 0.1208259
0.11718144 0.053347923 0.0039874506 0.067108974 0.08855388 0.016964164 0.06073925 0.033237763
0.071826436 0.09600541 0.054137338 -0.05219995 0.09274652 -0.021747362 0.11915053 0.022977434
0.038774222 0.10729953 0.026660768 0.17080024 0.008401597 0.057178043 -0.0035610963 0.1373048
-0.027396739 0.12262442 -0.0012509874 0.007518142 0.036375333 0.06121205 0.03629146 -0.021571185
-0.04425796 -0.0031269847 -0.031209888 0.07908324 0.04243344 0.063763976 0.026125783 0.013157679

dense4.weight f4 [128, 576]
00000000: e0c7 d3bd 503d d4bd d884 5bbd 512e 00bd
00000010: 46b4 5c3c a8de 53bd f9ee c3bc 4344 bfbd
00000020: 3e4b 193d 229a 95bd 6407 033d d4f1 b73c
00000030: bc86 11be 8f3d 1dbe 32d1 30bd 3216 03bc
00000040: ada8 3cbe 9370 dc3d aaca 66bd 88e5 483c
00000050: 9273 44bd a0a9 603c 1658 2b3c 27e5 563c
00000060: 7d38 8abd e771 c6bd a206 09be b627 ad3c
00000070: c3fc 413e 294f 46be ae97 c8bd 0490 e9bd
00000080: 9dd0 95bd 6ed6 b5bc dab2 ff3c 9502 003e
00000090: be0e c33d 50e6 dbbd 5df1 15bb a590 d6bd
000000a0: bf59 e7bd fc35 66bb d9d7 05bc 1d6a e4bd
000000b0: bf4c 67bc 5628 133e bfde 2fbd 3426 4c3d
000000c0: c7ad f33d ddd1 2c3c 9d32 2ebe b072 973d
000000d0: 5524 b43d c786 c33d 995e c3bd 96db 34be
000000e0: 9727 6f3d 001a 43bd 25a0 ec3d da69 b8bb
000000f0: 6856 34bd 9acc 2c3d f11a ee3d 34b3 e0bd
00000100: 833c 013e a893 30bd f48b 6dbe 3637 183d
00000110: 220e afbd 87dc c0bd f853 95bc 0be0 a4bd
00000120: 1e35 fb3d b270 1bbe 53c5 2fbd c830 a7bd
00000130: cfee 61bd 13db cc3c 0c08 24bd 2360 cabd
00000140: 97e6 3abe a501 373e b65b 1ebd 434c 1cbb
00000150: 20fd 48be c4ca 153e 7397 523d e84a 493c
00000160: 4d25 123c acb7 293d b358 da3c 7fb7 5abe
00000170: 996f 543d 5aed 0fbd 3bc3 f7bd da24 b4bd
00000180: b785 9ebd aae9 f23b 2f76 113e 4d00 79bb
00000190: dcc7 9fbc e59d 6abe 9c2e fbbc 9ca3 4f3b
000001a0: 6e45 62be 87a9 be3d 51fd cabd 3684 f43c
000001b0: 6430 953a c446 713d 0eb2 113e de4d 133e
000001c0: b556 27bd 7867 04be e328 e03d 4441 d93d
000001d0: 1fba 8abd a52b 983d 18df f3bd cff2 3f3b
000001e0: 90e6 67bd 4263 27be 8075 56bd 6a7c d03d
000001f0: defb 24be a2e6 e5bc 32c3 573d 3127 1dbc
00000200: e66c aabc dfba bc3d fa0a 5abe b2cb 02be
00000210: bed3 f3bd 600a bfbd cf3a 99bd 5ed1 c5bb
00000220: 2d02 13bd 78f9 aabc 8550 cd3c 219c a63d
00000230: 3c38 64bd 1e8d cebd 15ea 993b 9302 78bc
00000240: 6dd0 31bd 1894 163e 1f9c a1bb 5e16 603d
00000250: 58da 41bd 5bad 253e d4e7 afbd 9637 d2bd
00000260: 158a cc3d f846 4fbe 23aa 33bb e593 8bbe
00000270: b0c8 643b 077d ca3b ea85 cebd e3f7 133e
00000280: e23a 723d 56aa d4bb abe6 8039 705c b83d
00000290: f3d6 a2bd 26f0 a5bc 451b 4fbe 294f 0dbe
000002a0: 6d61 c8bd 4870 27be c2fc cfbd d15b 2abe
000002b0: 0f15 08be b5d1 4ebb cdac 7f3c 863e 0d3e
000002c0: f235 6abd 4a0f 39bd 77dd f8bd 480f 0d3c
000002d0: 4475 00be 208c b3bd b441 2ebe 11bb db3d
000002e0: 8996 8c3d 3bea d7bd 6d82 a0bd 0564 24bd
000002f0: aabe 5cbe 4540 fb3d 9648 1c3e da2b 82bd
00000300: a829 7e3d c0ed f4bb aa1c 86bd 06c8 62bd
00000310: 5261 073d 5699 9f3d 8f1d bd3d 4d15 f73c
00000320: 8be4 01be 2103 64bc 413b 59bd ad7a 0c3d
00000330: 9b72 13bd 1d53 24bc e386 29be 1700 eb3d
00000340: a93d 0dbd e507 a93a bbe1 5bbd 1f97 7fbd
00000350: f576 a73d 5ec1 e7ba 182d d4bb 7da7 d73c
00000360: a7fb 37bd a4d8 e7bd b4fe 2d3d f92b cabb
00000370: 92ca ad3d a8e9 173d 00d6 903d daf2 96bd
00000380: 676a d53c 728d cbbc 5db6 023d 4e12 cc3d
00000390: 578e 52bd 739a a63d 1cd7 7dbd ed79 d73d
000003a0: 9903 103e 6e3f 93bd 3633 a93d 1c5b 733d
000003b0: 0d6f 0c3d c669 533d 738e d03d f284 003e
000003c0: 115f 6fbd 4ad0 0b3d 580c cdbd f1fc 983c
000003d0: 600d 3abd 2c39 e9bd aef7 893d 4bb5 3abd
000003e0: bf91 583d 1cba 303e bc13 783d b0c0 b83d
000003f0: 4795 893d 6448 14bd b55e 8f3d b977 57bc
-0.103408575 -0.10363257 -0.053593487 -0.03129417 0.013470715 -0.051726013 -0.023917662 -0.09339192
0.037425272 -0.07304789 0.03198947 0.02245418 -0.14211553 -0.15355514 -0.043168254 -0.008000897
-0.1842372 0.10763659 -0.05634562 0.012261756 -0.04796178 0.013712317 0.010458013 0.013116158
-0.067490555 -0.09689694 -0.13381436 0.0211371 0.18944077 -0.19366135 -0.097945556 -0.11404422
-0.073151805 -0.022196975 0.031213213 0.12500985 0.09524296 -0.10737288 -0.002287946 -0.104768075
-0.112964146 -0.0035127392 -0.008169138 -0.11153052 -0.014117419 0.14370856 -0.042937037 0.04984112
0.1189838 0.010548082 -0.17011495 0.07394922 0.08795992 0.09547191 -0.095395274 -0.1766189
0.058387365 -0.047632217 0.11553983 -0.005627853 -0.044027716 0.04218731 0.116262324 -0.1097168
0.1262074 -0.043109566 -0.23197919 0.03716203 -0.085476175 -0.09417062 -0.018228516 -0.08050545
0.12265991 -0.15179709 -0.042912792 -0.08163601 -0.055159386 0.025006806 -0.040046737 -0.09881618
-0.18252026 0.17871721 -0.03866168 -0.0023849166 -0.1962781 0.1462813 0.051413964 0.012285925
0.008920026 0.04143493 0.026653623 -0.2135906 0.05186424 -0.035138465 -0.12097784 -0.087960914
-0.07740348 0.007413109 0.1420524 -0.0037994564 -0.01950448 -0.22911794 -0.030661874 0.0031683212
-0.22096798 0.093096785 -0.099115975 0.0298482 0.0011382219 0.058905378 0.14228079 0.14385173
-0.040854175 -0.12930095 0.109452985 0.106081516 -0.06773781 0.074301995 -0.11907786 0.0029289012
-0.056616366 -0.16346458 -0.05235815 0.1017998 -0.16111705 -0.028064076 0.052676387 -0.0095918635
-0.02080388 0.0921533 -0.2129325 -0.12773016 -0.11905621 -0.09328151 -0.0748192 -0.0060369214
-0.035890747 -0.02087091 0.025062809 0.08135248 -0.05571769 -0.1008551 0.004697094 -0.0151373325
-0.04341166 0.14704931 -0.004931941 0.05470883 -0.04732737 0.16179411 -0.085891396 -0.102645084
0.099872746 -0.20241916 -0.0027414642 -0.27261272 0.0034909658 0.006179455 -0.10084136 0.1445003
0.059138186 -0.006490032 0.00024585924 0.09002006 -0.079511546 -0.020256113 -0.20225246 -0.13799728
-0.097842075 -0.16351426 -0.101556316 -0.16636588 -0.13289283 -0.00315581 0.015605164 0.13793382
-0.057180353 -0.045180596 -0.12151616 0.0086096 -0.12544733 -0.08766961 -0.17017251 0.107290395
0.0686465 -0.10542723 -0.07837377 -0.04013445 -0.21557108 0.12268118 0.15262064 -0.0635602
0.062051445 -0.007474631 -0.06548436 -0.05536654 0.033051796 0.077929184 0.092341535 0.030161524
-0.12684838 -0.013916762 -0.053035025 0.03429668 -0.03599797 -0.010029581 -0.16555361 0.114746265
-0.03448263 0.001289603 -0.05368207 -0.06239998 0.08176986 -0.0017681529 -0.006475102 0.026324982
-0.04491773 -0.11320618 0.042479232 -0.0061697927 0.08485903 0.037088066 0.07072067 -0.07370539
0.026051713 -0.02484772 0.031912196 0.09964429 -0.051405277 0.081349276 -0.061972722 0.10521302
0.14063872 -0.07189833 0.08261721 0.05941306 0.034285594 0.051614545 0.1018342 0.12550715
-0.05844027 0.034134187 -0.1001212 0.0186753 -0.04542291 -0.11387858 0.06736694 -0.04558305
0.05287337 0.17258495 0.060565695 0.09021127 0.067179255 -0.03620185 0.07000486 -0.013151103

dense4.bias f4 [128]
00000000: 2df1 8bbd 7461 5d3e 1bc5 7c3d ceed f6be
00000010: 07b4 393e 7216 2e3e c46e c13e 872c 673d
00000020: fd86 e03c 1cdf 01be 1dc2 bfbe 1335 43bd
00000030: 78cd a6bc b0be d43d 6e57 15bc 3fbd aa3e
00000040: 3a5d 123e d8a5 42bb 21db 13bd c358 ce3c
00000050: a5c3 073d 6fac b23d 61e6 03bd 3862 913e
00000060: 45c5 d43d 300b 993d 4863 cd3d e4f5 093d
00000070: 5c9a 8abd fdd8 15bd f8d7 153d 98ab b83d
00000080: 4118 243e 6b1c 5a3d 9130 783d 2c9e 96bc
00000090: e93a 063f b410 30be dd09 483b 9fa7 04bb
000000a0: 7e63 213e 2322 8f3c 69a6 693e a5b5 88bc
000000b0: 341d a5bc 4b4a 57bb 8a48 a6bd 6fbc ee3e
000000c0: 4a75 d2bd 93ad ed3c c0bd 8f3c a5f2 62bd
000000d0: 0dc1 6d3e 72e5 fb3d 8387 8bbb 1335 3d3e
000000e0: 10fa 993d 7144 03be e555 ffbc 363f fe3e
000000f0: 2696 ed3c ce88 083d fe50 443d 6e6b cb3c
00000100: 855d e63d 5abd 193d 75d2 8bbd eedd 0e3d
00000110: 2cb7 9e3d 2ce1 943d 6e4b 573e 8e01 bc3d
00000120: ca66 23bd cdbc 2a3e 4174 2b3d 9d36 1c3d
00000130: 9ed8 713d 3f34 11bd cdfa b33d c68d f4bc
00000140: 19a4 01bf e036 003d d4cf 52bd e2b9 e13d
00000150: 3ff2 4ebc bebd 4b3e 579d 5d3d 14d1 afbd
00000160: 0c2e 9c3d fec2 4b3d 40be 0e3f eb62 643e
00000170: d797 68bd f851 fe3d 982f 403d f460 5a3d
00000180: 803b fa3d 5bf9 e2bd 6d19 193d 5a7a a13c
00000190: 1fdf 2f3a 7ca1 4d3e d5d2 263d d075 be3c
000001a0: c715 a6bc 7f45 243e 1ff9 4cbe b2fa 6a3e
000001b0: ead9 c93e b906 7e3d 918e 043e cd7b 03bd
000001c0: 8398 0ebe 466a ac3d 236b 9a3c 84a5 a93e
000001d0: d504 8a3d 0b7f 063d 7a24 533c 0f12 18bc
000001e0: 7a8b 7bbd b8c0 06bb fe38 cfbe c6d9 63bd
000001f0: 9175 f03c c6b5 453d 8f78 8bbd 9240 493e
-0.0683311 0.21619207 0.061711412 -0.48228306 0.18135081 0.1700075 0.3777982 0.05643895
0.027408117 -0.12682766 -0.37452784 -0.047658037 -0.020361647 0.10387933 -0.009115083 0.33347508
0.14293376 -0.0029700901 -0.03609765 0.02518881 0.033145566 0.08724295 -0.03220213 0.28395247
0.10389189 0.07472837 0.10028702 0.033681765 -0.06767723 -0.03658389 0.036582917 0.09017104
0.16024877 0.053249758 0.06059319 -0.01838597 0.5243364 -0.17193872 0.0030523457 -0.0020241512
0.1576061 0.017472332 0.22817387 -0.016688177 -0.020155527 -0.0032850679 -0.081193045 0.46628138
-0.10276277 0.02901343 0.017546535 -0.055407185 0.23218174 0.122996226 -0.0042580976 0.18477277
0.07518399 -0.12819077 -0.031168887 0.496576 0.02900226 0.033333592 0.047928803 0.0248315
0.11248306 0.037534095 -0.06827251 0.034879617 0.07749781 0.072695106 0.21024868 0.09179984
-0.03989295 0.16673584 0.041858915 0.03813802 0.059044473 -0.035450216 0.08788071 -0.02985276
-0.5064102 0.031302333 -0.05146773 0.110217825 -0.012630998 0.198966 0.05410513 -0.085848
0.0762597 0.049746506 0.5575905 0.22303359 -0.05678543 0.12417978 0.04692039 0.053315118
0.1221838 -0.11082717 0.037377764 0.019711662 0.0006708968 0.20081133 0.04072841 0.023249537
-0.020274056 0.16042136 -0.20016907 0.22947195 0.39424068 0.06201813 0.1294501 -0.032100488
-0.13925366 0.084187075 0.018849915 0.3313409 0.06739203 0.032836 0.012887115 -0.009281649
-0.061412312 -0.0020561647 -0.4047317 -0.055627607 0.029352935 0.048269056 -0.06810104 0.19653538
